mgt8803/assignments/AS8/outputs/model_step3_FIAT_EQUITY.pt (torch, 3472 bytes, 3 tensors)

model.0.weight f4 [8, 36]
0	0xbd715668	-0.058920294
1	0x3cdd77fe	0.027034756
2	0xbcf8438e	-0.03030565
3	0x3e027040	0.12738132
4	0x3d34e62c	0.04416482
5	0x3e037604	0.12837988
6	0xbdb2e761	-0.08735538
7	0xbe27b22b	-0.1637656
8	0xbe2d4bf7	-0.1692351
9	0x3d0d6a54	0.03452523
10	0x3dfb063c	0.122570485
11	0x3e9e7c10	0.30954027
12	0xbe91dab8	-0.28487182
13	0x3d888b43	0.06667187
14	0x3dc72daf	0.0972551
15	0xbd36a311	-0.044589106
16	0x3e989a16	0.29805058
17	0xbd88cec0	-0.066800594
18	0xbd090c3d	-0.033458937
19	0x3e08c29d	0.13355489
20	0xbe328f5c	-0.174375
21	0x3e99fd2a	0.3007596
22	0x3e1169c3	0.14200501
23	0xbdb9244b	-0.090401255
24	0x3e9496bf	0.2902126
25	0x3b8e1ac1	0.0043366854
26	0x3d2f1c4c	0.042751595
27	0xbe01c3c3	-0.12672333
28	0xbe7bd1a8	-0.24591696
29	0xbe4a483b	-0.19754116
30	0xbdcd9a78	-0.10039228
31	0x3da68ebe	0.08132695
32	0xbd931ac9	-0.07182843
33	0x3ec1f1b2	0.3787971
34	0xbd04ec2c	-0.032451794
35	0xbd286f6f	-0.041121896
36	0x3dd61e1a	0.1045496
37	0x3a648c00	0.00087183714
38	0xbdfbb21b	-0.1228983
39	0x3e010b59	0.12601985
40	0xbe19f6c4	-0.1503554
41	0xbc87f5c0	-0.016596675
42	0xbd050434	-0.03247471
43	0x3c454710	0.012040868
44	0xbde9d81b	-0.11418172
45	0xbcb71048	-0.02234663
46	0x3d604d40	0.05476117
47	0xbd9c20d0	-0.07623446
48	0xbcee9a98	-0.02912645
49	0x3e1cf4b5	0.15327723
50	0xbc35abf0	-0.011088356
51	0xbdb93cb8	-0.09044784
52	0xbd479b50	-0.048732102
53	0x3c265110	0.010151163
54	0xbc7b3cc0	-0.015334308
55	0x3e173f2f	0.14770196
56	0x3df8eff2	0.12155141
57	0x3dcd2a9e	0.10017894
58	0xbc90d348	-0.017678872
59	0x3dc22b72	0.09480943
60	0x3d541c84	0.051785007
61	0x3da7f6f0	0.082013965
62	0x3e145b2f	0.14487909
63	0x3e08a841	0.13345434
64	0xbabb9f80	-0.0014314502
65	0xbe1d1c13	-0.1534274
66	0x3d50c6c0	0.050970793
67	0xbdd57fce	-0.104247674
68	0x3e294861	0.16531517
69	0xbd88e3ce	-0.06684075
70	0x3da9f262	0.08298184
71	0x3d26c954	0.040719345
72	0xbd6451fc	-0.05574225
73	0xbdcd06d8	-0.10011071
74	0x3cc84e48	0.02445139
75	0xbd070a9c	-0.032969102
76	0x3e1b0183	0.15137295
77	0xbccc3f20	-0.024932444
78	0x3e1df1a9	0.15424217
79	0x3db7dc9e	0.08977626
80	0xbe26039c	-0.16212314
81	0x3e0e650d	0.13905735
82	0xbd33b106	-0.043869995
83	0x3b90c300	0.004417777
84	0x3e274445	0.16334637
85	0xbdcf9073	-0.101349734
86	0xbdd4286b	-0.103592716
87	0x3d0e9b8c	0.03481631
88	0x3d725e14	0.05917175
89	0x3d9488f8	0.07252687
90	0x3d8344f0	0.06409633
91	0xbce81828	-0.028331831
92	0x3d7e8d7c	0.06214665
93	0x3db43ffe	0.08801268
94	0xbd2b7a70	-0.041864812
95	0x3cf64058	0.030059978
96	0x3dce6122	0.1007712
97	0x3e0034ad	0.12520094
98	0xbdb1bc06	-0.08678441
99	0x3e187099	0.14886703
100	0x3d432ce0	0.047650218
101	0x3e226a29	0.1586081
102	0x3ba1ad80	0.004934013
103	0xbc383d30	-0.011245057
104	0x3deb31fa	0.11484142
105	0x39d6c200	0.00040961802
106	0xbddddaa6	-0.108327195
107	0x3ca77c20	0.02044493
108	0xbd032ac4	-0.032023206
109	0xbdf627ec	-0.12019333
110	0x3da1ba62	0.07896878
111	0xbc6343ce	-0.013871146
112	0x3e417120	0.1889081
113	0xbc90e75d	-0.017688448
114	0xbdd40041	-0.10351611
115	0xbe80500d	-0.25061074
116	0xbdd47757	-0.10374325
117	0xbe930390	-0.28713655
118	0xbd7a74ce	-0.06114655
119	0x3e0d93b3	0.13825874
120	0xbdf65e38	-0.120296896
121	0x3e3fd7a9	0.18734612
122	0xbb2d088c	-0.00264028
123	0xbe94e30d	-0.29079476
124	0x3e88b7b9	0.2670267
125	0x3e12ad47	0.14323913
126	0x3db51608	0.08842093
127	0x3e2b4a64	0.16727597
128	0xbe8cd5db	-0.2750691
129	0x3eb8e565	0.36112514
130	0x3dfc0490	0.12305558
131	0x3d4a1d18	0.049344152
132	0x3d94bfbd	0.07263134
133	0xbdf31671	-0.11869515
134	0xbbccbf4a	-0.0062483894
135	0xbe43a96f	-0.19107603
136	0xbe35772c	-0.17721242
137	0xbe407f60	-0.1879859
138	0xbe8f6799	-0.28008726
139	0x3e1cdb5b	0.15318052
140	0x3e2f4610	0.1711657
141	0x3db5d582	0.08878614
142	0x3d4c24b0	0.049839675
143	0x3e85a451	0.26101926
144	0xbe58959f	-0.21150826
145	0x3e28b98a	0.16477028
146	0x3dd3134d	0.10306416
147	0xbe20f1e5	-0.15717275
148	0x3cb722fc	0.022355549
149	0xbda42e5a	-0.08016653
150	0xbd3962e9	-0.045260344
151	0xbd354eff	-0.04426479
152	0x3c9cf7b5	0.019161085
153	0x3db56b9c	0.088584155
154	0x3db6a335	0.08917848
155	0x3e8502c9	0.25978687
156	0xbdfcc09a	-0.12341423
157	0x3d0a44e0	0.03375709
158	0x3da34656	0.079724
159	0xbe35875e	-0.1772742
160	0x3e1631ca	0.1466743
161	0x3d477b87	0.04870179
162	0x3e7c74ce	0.24653932
163	0x3e111766	0.14169082
164	0xbe286352	-0.16444138
165	0x3ea4c05e	0.32178015
166	0x3e93fb4b	0.2890266
167	0x3c518ff6	0.012790671
168	0x3d69fa9d	0.05712377
169	0x3e264f4f	0.16241191
170	0x3e49ecfd	0.1971931
171	0xbe61e2a9	-0.2205912
172	0xbe44c561	-0.19215919
173	0xbe976e8e	-0.29576534
174	0xbe7b2ea3	-0.24529509
175	0x3d91e340	0.071234226
176	0xbe19ea1b	-0.1503071
177	0x3dc5440c	0.096321195
178	0xbe0192ee	-0.12653705
179	0x3deb27fc	0.11482236
180	0xbda86657	-0.08222645
181	0xbe2d9c93	-0.1695426
182	0xbe79a2b8	-0.24378479
183	0x3dcb94b4	0.09940472
184	0xbe30d801	-0.17269899
185	0x3e15af35	0.14617617
186	0xbd8a593d	-0.06755302
187	0x3e148f72	0.14507845
188	0x3e27fbe9	0.1640469
189	0xbd2ad0fc	-0.04170321
190	0xbe267140	-0.16254139
191	0xbe6acf09	-0.2293054
192	0x3da23ab2	0.079213515
193	0x3e50a32a	0.20374742
194	0xbe95c557	-0.2925212
195	0x3d74cd70	0.059766233
196	0x3dd9e8d9	0.10640115
197	0x3dc07b14	0.09398475
198	0x3dbb48ec	0.09144768
199	0xbe8cef87	-0.27526495
200	0xbe12688b	-0.14297692
201	0x3e145640	0.14486027
202	0xbe2e2a50	-0.17008328
203	0xbd381ade	-0.044947498
204	0xbdb27fbb	-0.08715769
205	0x3e7647b8	0.24050796
206	0x3d8cba58	0.0687148
207	0x3d08c41b	0.033390146
208	0x3bc7c0a9	0.006095965
209	0xbdb8bf65	-0.090208806
210	0xba42ffb8	-0.0007438618
211	0xbe0f70a2	-0.1400781
212	0x3e5f49ad	0.21805449
213	0x3e5f8887	0.21829425
214	0xbea0f3ad	-0.3143591
215	0x3c1a92ae	0.009434385
216	0x3e30b8d3	0.17258005
217	0xbd82d47b	-0.06388184
218	0xbe0253c6	-0.1272727
219	0x3d58945f	0.052875873
220	0x3da3e73a	0.08003087
221	0x3dd88ee6	0.10574131
222	0x3cfcdb88	0.0308664
223	0x3d3d600c	0.046234176
224	0x3c0f6637	0.008752397
225	0xbdac5d85	-0.08416275
226	0xbc9b3909	-0.018948095
227	0xbd543307	-0.051806476
228	0x3e8adb0d	0.27120247
229	0xbcd75c7d	-0.026289219
230	0xbe855f13	-0.26049098
231	0x3e59aaab	0.21256511
232	0xbd880b01	-0.06642724
233	0xbdb5aa7f	-0.0887041
234	0x3c0ec445	0.0087137865
235	0xbe0fe9b5	-0.14053996
236	0x3da040c5	0.07824854
237	0xbda7187c	-0.08158967
238	0xbe5f5e03	-0.21813206
239	0x3e4565fc	0.19277185
240	0xbe30c546	-0.17262754
241	0x3d7f151c	0.06227599
242	0x3e28059d	0.16408391
243	0x3d11bf04	0.035582557
244	0x3e64a526	0.22328624
245	0x3de1d771	0.1102742
246	0x3e8a9c16	0.2707221
247	0xbc810e91	-0.015754016
248	0x3c823e1b	0.015898755
249	0xbdce5e66	-0.10076599
250	0xbe5824ec	-0.21107835
251	0xbc8162a3	-0.015794104
252	0x3e342fe8	0.175964
253	0xbe5e1f29	-0.21691574
254	0xbcc27e13	-0.023741757
255	0x3e38e085	0.18054397

model.0.bias f4 [8]
0	0x3dd16310	0.10223973
1	0xbdcab9a8	-0.09898692
2	0xbd89bc73	-0.06725397
3	0x3dc04a45	0.09389166
4	0x3e087adb	0.13328116
5	0xbc004bfa	-0.007830614
6	0xbdd83dd0	-0.10558665
7	0xbc9f17c3	-0.01942051

model.2.weight f4 [1, 8]
0	0xbe3bba7a	-0.18332854
1	0x3ea93b25	0.33052936
2	0x3e91575d	0.28386965
3	0xbe5abe3a	-0.21361628
4	0xbdd8a30b	-0.10577973
5	0xbe845466	-0.2584564
6	0x3ddc0102	0.1074238
7	0x3e1f37ef	0.1554868
