mgt8803/assignments/AS8/outputs/model_step3_FIAT_EQUITY.pt (torch, 2896 bytes, 3 tensors)

model.0.weight f4 [4, 36]
0	0x3d81c460	0.06336284
1	0x3df551bf	0.119784825
2	0xbc3ffb91	-0.011717693
3	0xbd35012e	-0.04419058
4	0xbdedb128	-0.116060555
5	0xbdf7f6b3	-0.12107601
6	0xbe43c533	-0.19118194
7	0xbe1184f6	-0.14210877
8	0x3d727941	0.059197668
9	0x3da215ab	0.07914289
10	0xbe30af24	-0.17254311
11	0x3d2db131	0.04240531
12	0xbe3bd596	-0.18343195
13	0x3b928495	0.0044713714
14	0xbd4d877b	-0.050178032
15	0xbe1fa8a9	-0.15591682
16	0x3d9432a1	0.07236219
17	0x3d08b357	0.033374157
18	0xbd0092bf	-0.031389948
19	0xbda4a316	-0.08038919
20	0xbe05404f	-0.13012813
21	0xbddf79ef	-0.10911929
22	0xbdaad7b8	-0.08341926
23	0x3e1f50cc	0.15558165
24	0xbd17d22e	-0.037065677
25	0x3c00ba44	0.007856909
26	0xbce18ecd	-0.027533913
27	0x3d965a5e	0.07341455
28	0xbe12d9fb	-0.14340965
29	0xbd7a4e8a	-0.061110057
30	0xbdbe799c	-0.09300539
31	0xbe1e6505	-0.15468223
32	0x3c670547	0.014100379
33	0x3c22a402	0.009926798
34	0x3e1627bb	0.14663593
35	0xbd6a5455	-0.05720933
36	0x3d491bfb	0.04909895
37	0x3de26776	0.1105489
38	0xbe19e132	-0.15027311
39	0xbde27ad0	-0.11058581
40	0xbde6d9ac	-0.11271986
41	0x3dca1943	0.098680995
42	0xbd3e46ec	-0.046454355
43	0x3c96828e	0.0183728
44	0x3d99a6f5	0.07502548
45	0xbda671a4	-0.08127144
46	0xbda22706	-0.079175994
47	0x3e1ee515	0.15517075
48	0xbe351d0c	-0.17686862
49	0xbd861b46	-0.06548171
50	0x3e23ea1d	0.16007276
51	0x3d259041	0.040420774
52	0x3d18cd18	0.037304968
53	0x3ca36fbe	0.019950744
54	0x3d63a8dc	0.05558096
55	0x3dd664ec	0.10468468
56	0x3da38671	0.07984627
57	0x3e080746	0.13284025
58	0xbd84d43e	-0.064857945
59	0x3b844d73	0.004037553
60	0x3c8f27d4	0.017475046
61	0x3db880da	0.090089515
62	0x3d906f64	0.07052496
63	0x3dbe070d	0.092786886
64	0xbe10b698	-0.14132154
65	0x3d859824	0.06523159
66	0xbe3b1a48	-0.18271744
67	0x3de4d0b1	0.11172617
68	0xbcee2319	-0.02906947
69	0xbd6aa6f1	-0.057288114
70	0x3bf6109a	0.0075093033
71	0x3d6d14b9	0.05788109
72	0xbe1da7de	-0.15396068
73	0xbdfbd5dd	-0.122966506
74	0xbdfd1324	-0.123571664
75	0xbdd5219b	-0.104068
76	0x3da38d83	0.079859756
77	0x3bb2ee59	0.005460542
78	0xbd7d0731	-0.061774436
79	0x3d3ae564	0.04562892
80	0xbdb8f5c7	-0.09031253
81	0xbe03acc0	-0.12858868
82	0xbd2db64b	-0.042410176
83	0xbe1baab3	-0.15201835
84	0x3e073827	0.13205014
85	0xbd6c938c	-0.0577579
86	0x3e003b0c	0.12522525
87	0xbe04b0aa	-0.12958017
88	0x3d2c5b59	0.042079303
89	0xbe1f35e6	-0.15547904
90	0xbdd75ffc	-0.105163544
91	0x3de7fdd1	0.113277085
92	0xbd0117e3	-0.03151692
93	0x3e2e4960	0.17020178
94	0x3c76540c	0.015034687
95	0x3cc0d24b	0.023537776
96	0x3e000137	0.12500463
97	0xbda52084	-0.080628425
98	0xbdde8870	-0.10865867
99	0x3ce42823	0.02785117
100	0x3ad6192f	0.001633441
101	0xbdaf83a2	-0.08570029
102	0xbe03ca6f	-0.12870191
103	0xbe0a3de7	-0.13500176
104	0xbda035a8	-0.07822734
105	0xbdb6f645	-0.08933691
106	0x3d1ee4a3	0.038792264
107	0xbd48e406	-0.049045585
108	0x3ddf5476	0.109047815
109	0xbd3881a7	-0.04504552
110	0xbdc745df	-0.09730124
111	0xbde675b1	-0.112529166
112	0x3d17a7a5	0.037025113
113	0xbd8d8ad0	-0.06911242
114	0x3df8203f	0.121155255
115	0x3c2fa665	0.010720824
116	0xbe0b88ca	-0.136264
117	0xbc2d7447	-0.010586805
118	0x3d886738	0.066603124
119	0x3da0e183	0.07855513
120	0xbd939e25	-0.07207898
121	0x3dedf6f5	0.11619369
122	0xbe1e7ce5	-0.15477331
123	0x3da2c154	0.07947031
124	0xbdcb0d62	-0.09914662
125	0x3db51f2b	0.088438354
126	0x3cf2abfd	0.029623026
127	0xbcbf83d6	-0.023378294
128	0x3d0fc657	0.03510126
129	0x3d40e599	0.04709396
130	0xbc2d5340	-0.01057893
131	0xbc544ae9	-0.012957313
132	0xbdc2c532	-0.09510268
133	0x3e07b14e	0.1325123
134	0x3dca4603	0.09876635
135	0xbe222f7b	-0.15838425
136	0x3e24d80f	0.16098045
137	0x3d8da69c	0.06916544
138	0x3df36778	0.118849695
139	0xbdfd3c30	-0.123649955
140	0x3d168408	0.03674701
141	0xbca0f181	-0.019646408
142	0x3e042499	0.12904586
143	0xbd7f1659	-0.06227717

model.0.bias f4 [4]
0	0xbdb71a76	-0.08940594
1	0x3dd47553	0.1037394
2	0xbd30497b	-0.043038826
3	0xbdac0874	-0.0840005

model.2.weight f4 [1, 4]
0	0x3d8422f4	0.06451979
1	0x3eb7676d	0.35821095
2	0xbec5d1b0	-0.3863654
3	0xbeacd05a	-0.3375271
