mgt8803/assignments/AS8/outputs/model_step3_FIAT_GOLD.pt (torch, 2816 bytes, 3 tensors)

model.0.weight f4 [4, 36]
000000 51 e6 67 3d 8d 62 60 bd 1b 4c b7 3c 6e d1 de bc
       0.05661613 -0.054781485 0.022375157 -0.027199473
000010 b0 6f 46 3d bd 3a d0 3d bc 18 49 bc 45 94 03 be
       0.048446357 0.101674534 -0.012273964 -0.12849529
000020 2d 8d 28 3e b4 f2 01 be 6c 32 d1 bd 6f 0a 8f 3d
       0.16460104 -0.1269024 -0.10214695 0.06984412
000030 28 d9 4d 3d cf 50 12 3e 5a 26 8a 3d 92 9f cf 3d
       0.050255924 0.14288639 0.06745596 0.101378575
000040 88 a8 e4 bd 3c a8 b0 3d 5c 03 2b bb bb 5d 2c 3e
       -0.11164957 0.08625838 -0.0026094532 0.1683263
000050 62 5f a5 3d 7c 02 07 be ef 33 f7 bd e8 7c b8 3d
       0.080748335 -0.13184541 -0.120704524 0.09008199
000060 c9 a6 a9 bd 32 6c 0a bd 7d 6d 07 be 91 88 82 bd
       -0.08283765 -0.03379459 -0.1322536 -0.06373704
000070 ef d8 5c bd a9 1c 31 be 5e b3 de 3d 31 2e 22 be
       -0.05391782 -0.17296089 0.10874055 -0.15837933
000080 42 f3 15 be e7 c0 fc 3d 8f ac ee bd 82 55 34 be
       -0.14643577 0.12341481 -0.11654007 -0.17610744
000090 99 58 8d 3d 30 6b d0 bc 8b 01 93 bc 7d ee 01 bc
       0.06901664 -0.025441736 -0.017945072 -0.007930395
0000a0 3c b2 2d 3d da be 19 be 8a 46 cc 3d 93 2f 3c be
       0.042406306 -0.1501421 0.09974392 -0.18377523
0000b0 ec e3 dd bd c8 6b 6e bd 0c 25 96 bd b0 c8 7c 3d
       -0.10834488 -0.058208257 -0.07331285 0.061714828
0000c0 15 9b 8c 3d 63 55 67 bc a3 7c 2f 3e c7 7e c6 bd
       0.06865517 -0.014119479 0.17137389 -0.096921496
0000d0 f8 33 f1 3d ea da f6 3d dc 9b bc bd f9 f7 fd bd
       0.117774904 0.12053473 -0.09209415 -0.12400813
0000e0 a5 5b 87 bd c2 7d 7b bd 17 de 18 3e 80 52 a4 bd
       -0.06609277 -0.06139923 0.1492847 -0.08023548
0000f0 1a 53 3c bd bf 56 fd 3d 9c 41 01 be cf dd 9b bd
       -0.04597769 0.12370061 -0.12622684 -0.07610666
000100 58 0f ab 3d 93 fa 8a bd 57 6b 22 be a1 78 04 be
       0.08352536 -0.067860745 -0.1586126 -0.12936641
000110 20 44 f8 bd 80 49 b9 bd 79 91 c8 3d 77 49 3b 3d
       -0.12122369 -0.09047222 0.09793372 0.04572436
000120 cf 22 b6 3c 49 58 6c bd ae 50 0c 3e 50 24 d0 bd
       0.022233395 -0.057701383 0.13702652 -0.10163176
000130 d2 75 52 3d bc 54 f1 bd f8 18 be bd 87 87 01 bc
       0.051381893 -0.1178374 -0.09282106 -0.007905847
000140 d9 40 0b be 34 ab 09 3d 27 08 ea 3c bb 0a 3b be
       -0.13598956 0.033610538 0.02856834 -0.18265812
000150 18 c5 dd 3d 68 f3 33 3e d7 e7 33 be 2e ce 21 3e
       0.10828608 0.17573321 -0.17568909 0.15801308
000160 38 65 9e bc 00 9f 81 bd 10 25 a3 3d 7a ff 05 3e
       -0.019335374 -0.06329155 0.079660535 0.13085738
000170 99 ab 94 bd 52 44 f3 3d 67 5c 16 be ea 4e 9d bc
       -0.07259292 0.118782654 -0.14683686 -0.019202668
000180 b0 85 b9 bd 48 0c 3f 3e 1b ed da bc 7a 52 12 3e
       -0.09058702 0.18657029 -0.026724389 0.14289275
000190 49 4a 0d 3e 81 15 a5 3d b0 60 b1 3d 3e c8 18 3d
       0.13797869 0.08060742 0.0866102 0.03730034
0001a0 61 ce 43 3e ef 68 ad bd 53 6d 2c be 14 6c 83 bc
       0.19121696 -0.0846728 -0.16838579 -0.016042747
0001b0 36 01 ca 3d 26 fe e5 bd 9e 08 9a ba 1f f8 1b be
       0.09863512 -0.112301156 -0.0011751836 -0.1523137
0001c0 e0 cd 9d bd 19 75 64 3d 7b 57 21 3e c2 ef 77 bc
       -0.07705283 0.055775736 0.15756027 -0.015132846
0001d0 99 b0 d3 3b a9 d8 21 3e 48 7b 0f 3e 6a 96 10 bd
       0.006460261 0.15805306 0.14011872 -0.035299696
0001e0 4e a1 ea 3d ef c3 0e 3e f6 44 ba 3b 49 c6 d0 3d
       0.11456548 0.1394193 0.0056844903 0.1019407
0001f0 c7 eb 12 3e fe ee 15 be 80 eb 07 3e 1d 4f a6 bc
       0.14347754 -0.1464195 0.1327343 -0.020301396
000200 05 fd d4 bc 39 06 21 3e bd db 33 3e 1e 11 db 3d
       -0.025999555 0.1572503 0.17564292 0.10696624
000210 ac c3 e7 3d 5a c3 89 bc 6d 2f cf bc ae c1 1a 3c
       0.11316618 -0.016816784 -0.025291169 0.009445591
000220 92 62 9e 3d e3 c1 08 bd 5d fe c2 3d ef 26 be 3d
       0.077336445 -0.03338803 0.09521172 0.0928477
000230 06 4a 02 bd b3 bd bc bd c5 0c d3 3d 7d 2c 65 bd
       -0.031808876 -0.0921587 0.1030517 -0.05595063

model.0.bias f4 [4]
000000 0f 05 fa bd 15 00 07 3c 1b 6b da 3d 85 f5 de bd
       -0.12207996 0.008239766 0.1066496 -0.10886673

model.2.weight f4 [1, 4]
000000 7c 82 9d bc c5 a2 cf 3e b7 cf 7d be 53 be d2 be
       -0.019227259 0.4055387 -0.24786268 -0.4116083
