mgt8803/assignments/AS8/outputs/model_step1_fiat.pt (torch, 2584 bytes, 3 tensors)

model.0.weight f4 [4, 24]
0.15051603 0.14750999 0.1516985 0.17688565 -0.047544878 0.17824794 -0.080306076 0.08340189
0.013276655 0.07218725 -0.006773666 -0.19809699 0.22202626 0.040909458 -0.18070763 0.091477096
-0.12380356 -0.22104616 -0.17031619 -0.05029835 0.16199188 -0.07373688 0.14231664 0.07052126
-0.024574634 0.005318623 0.13451383 -0.11278058 0.18632187 0.048432473 -0.091067635 0.14133754
0.17671382 -0.06878278 -0.12288127 0.14170665 0.13460714 0.20496748 -0.0062351073 0.12618208
0.1382261 -0.029470952 0.0026610452 -0.019547032 -0.1344888 0.034256443 0.20195603 0.19896677
0.12518561 0.120262496 0.042114228 -0.13738897 -0.17990361 -0.043147013 0.048308283 0.10657505
-0.09696632 0.124082096 0.028382234 0.007765832 0.22887243 0.04014501 -0.046310548 -0.06311904
0.19119748 -0.19477087 0.16005991 -0.039907496 -0.07859036 0.07031241 0.08574604 0.071967445
-0.11913171 0.0226433 0.083279066 0.038288757 -0.13980734 -0.1523838 -0.03199353 0.16123088
0.04237542 -0.005270398 -0.22547142 0.06528336 -0.06392592 0.13759896 0.18018204 0.11234251
0.1682268 -0.11758897 0.17430162 0.06691462 -0.15863228 0.20186974 -0.008155598 -0.14405614
00000000: e020 1a3e dc0c 173e da56 1b3e 8321 353e
00000010: 6bbe 42bd a186 363e 8377 a4bd 9cce aa3d
00000020: 5486 593c e9d6 933d a1f5 ddbb f0d9 4abe
00000030: da5a 633e ad90 273d 6c0b 39be 5858 bb3d
00000040: b98c fdbd ed59 62be 5e67 2ebe a505 4ebd
00000050: 33e1 253e 5d03 97bd 74bb 113e 736d 903d
00000060: be50 c9bc d847 ae3b febd 093e 81f9 e6bd
00000070: 29cb 3e3e 2161 463d ab81 babd caba 103e
00000080: 78f4 343e fcdd 8cbd 2da9 fbbd 8c1b 113e
00000090: 74d6 093e ffe2 513e df4f ccbb e035 013e
000000a0: 258b 0d3e 116d f1bc ee64 2e3b 1921 a0bc
000000b0: 6fb7 09be 7c50 0c3d 90cd 4e3e f2bd 4b3e
000000c0: a830 003e 2f4c f63d f87f 2c3d b2af 0cbe
000000d0: a738 38be ecba 30bd e8de 453d 0544 da3d
000000e0: 4796 c6bd c11e fe3d dc81 e83c 8578 fe3b
000000f0: 895d 6a3e 186f 243d 21b0 3dbd 8e44 81bd
00000100: 46c9 433e 0472 47be bfe6 233e 0b76 23bd
00000110: fcf3 a0bd f4ff 8f3d 9f9b af3d ab63 933d
00000120: 53fb f3bd 717e b93c 378e aa3d acd4 1c3d
00000130: a829 0fbe 800a 1cbe a60b 03bd b519 253e
00000140: d991 2d3d 4eb3 acbb fbe1 66be 48b3 853d
00000150: 98eb 82bd bee6 0c3e a481 383e d413 e63d
00000160: a543 2c3e 7cd2 f0bd 207c 323e 880a 893d
00000170: 8070 22be f1b6 4e3e 0f9f 05bc 7483 13be

model.0.bias f4 [4]
-0.062210422 -0.06457473 -0.0029543906 -0.04265654
00000000: 5bd0 7ebd c23f 84bd 739e 41bb a0b8 2ebd

model.2.weight f4 [1, 4]
0.35429695 0.05930039 0.4905944 -0.40325907
00000000: 6966 b53e f7e4 723d 302f fb3e f977 cebe
