mgt8803/assignments/AS8/outputs/model_step3_FIAT.pt (torch, 2584 bytes, 3 tensors)

model.0.weight f4 [4, 24]
00000000: f8be 3e3d 2cbb 42be 9ae7 51be baf2 023e
00000010: 0f43 193e 5040 e1bd be5b 0cbe e3a0 cbbd
00000020: 5a67 2fbb f41f 163e 4112 35be b6ab 233e
00000030: 2ed6 39be 3e25 6dbd f451 5c3e ebd9 a0bd
00000040: 2e2a 98b9 0486 c93d 19b6 04be edaa a2bc
00000050: 8227 27be d539 6fbd 63c2 4ebd 75f9 e1bd
00000060: 5281 01bd 901d d93b 6021 953d fc2d 1fbb
00000070: 3151 febd a628 2b3e 7643 003e 1626 ffbd
00000080: 9f80 553d b646 ba3d 49f4 0bbe 51bb 0abe
00000090: d9a8 f23d d1c8 a03d 0512 0f3e bc1d f7bd
000000a0: 8860 c1bd 09dd 063e 4544 063e 5076 0abd
000000b0: 23d3 183e 71ed 47bd 7d7a 08be 4b23 9fbd
000000c0: 1c32 a53d 033e 1fbd 825b df3d 39f9 c33d
000000d0: b1e6 47bd 2254 cd3d f8d9 323e dad2 84bd
000000e0: d244 eb3d e006 983d 5ffd 5bbe 54b0 03be
000000f0: 7cf2 07be a4e6 4f3e 5a34 19be f450 0a3e
00000100: eee6 22bd 3d66 13be d50a ab3d d731 0cbe
00000110: e4b5 22bd a2c1 cb3b c3fa 2d3e 5a2d 593e
00000120: d67a b8bd 2079 9bbb 9393 eebd a749 8abd
00000130: cdfb 13be 9b5d 1fbe d2be 543e ce28 af3b
00000140: e72f 2fbd d402 47bd 8f74 733d 54f7 12be
00000150: 7836 d63c 89b8 66be c17b a2bd 095e f63b
00000160: 1765 273e a903 933d 1348 5bbe 82a6 00be
00000170: dfcf 033e 3c16 1cbe 8e6b fc3c c42e 61bc
0.04656884 -0.19016713 -0.20498505 0.12787905 0.14966987 -0.10998595 -0.13706872 -0.09942796
-0.0026764483 0.14660627 -0.17682745 0.15983471 -0.1814811 -0.057896845 0.21515638 -0.078540646
-0.00029023126 0.098400146 -0.1296009 -0.019856894 -0.16323665 -0.058404762 -0.05047835 -0.11033908
-0.03161747 0.0066258386 0.072817564 -0.0024288883 -0.1241783 0.16714725 0.12525734 -0.12458436
0.052124616 0.09095518 -0.13667406 -0.13548018 0.118486114 0.07850803 0.13971718 -0.12066218
-0.0944224 0.13170256 0.1311198 -0.033804238 0.14924292 -0.048810426 -0.13327976 -0.077704035
0.08066198 -0.0388775 0.109061256 0.0956902 -0.04880399 0.10025813 0.17465961 -0.06485529
0.11487736 0.07423186 -0.21483372 -0.12860233 -0.13276094 0.20302826 -0.14961377 0.13507444
-0.039771013 -0.1439447 0.083516754 -0.13690887 -0.039724246 0.006218151 0.16990189 0.21208706
-0.09007804 -0.004744664 -0.11649241 -0.06752329 -0.14451523 -0.15563051 0.20775917 0.0053454405
-0.042770293 -0.04858668 0.05943733 -0.1435216 0.02614902 -0.22531332 -0.079337604 0.007518534
0.16347156 0.071784325 -0.21414213 -0.12563518 0.12872265 -0.15242857 0.030813005 -0.01374406

model.0.bias f4 [4]
00000000: 53ee 1c3d 77cc 4bbe 0c93 683e fd35 debd
0.03831322 -0.19902216 0.22712344 -0.10850141

model.2.weight f4 [1, 4]
00000000: d102 ec3d 1114 65be fc3f 5f3e 2519 55be
0.11523975 -0.22370936 0.21801752 -0.20810373
