mgt8803/assignments/AS8/outputs/model_step3_GOLD.pt (torch, 3864 bytes, 3 tensors)

model.0.weight f4 [16, 24]
00000000: 514f 233d 142b 1cbe e250 4a3e 58b4 b4bb
00000010: 8333 47be 94dd 283c f088 dcbd cf5a c1bc
00000020: ceef 0ebe 5f9d 2a3e 569c 0a3d 4bf4 d53c
00000030: 405a b1bd 6f24 55be 9d73 5abd 5348 353d
00000040: ba8a 24be e9ad 333e dbe4 d3bd 2e36 28bd
00000050: 533e d6bd 448d dd3c dc4d 853d 6073 ca3d
00000060: 6d7e 2cbe 28e4 55bb 15a2 47be a34f 2bbe
00000070: e157 45bd 2c7e 933d a0e4 e1bd 4be6 0abe
00000080: 31c3 38be 5c05 6abe b966 073e 9abe 903d
00000090: c311 eabd 6fd0 2bbe 08ae 4abe 432c 983d
000000a0: a1b1 db3d 8741 0dbe c424 46be c9fb 433c
000000b0: ffe1 553e 0dc1 25be f49b 663d e3fd 83bd
000000c0: 74e3 8c3d c829 0fbe ef84 9cbd 854f 5d3d
000000d0: e0a8 81bd 04a1 84bd 76cd 023d a142 b9bc
000000e0: 03d4 6f3d bce3 b63d 3424 8b3d f99e 37bd
000000f0: 6c92 b23d df42 dabc 663a 06be e683 84bd
00000100: 6b99 373e fd89 36be 86a3 083e c854 613d
00000110: f29c 44be c480 bc3d 99c7 223e 78f4 4b3e
00000120: 0415 88bd 9fca a9bb 57df 34bd e20e 283e
00000130: bcb5 34be f56e 2dbe 0cea fdbd 0dd3 bfbd
00000140: 73f0 0b3e d446 37bc 3ca9 1f3e 2bc6 17be
00000150: c49d dc3d b495 45bd 2e3e 123e 92e4 553e
00000160: ff8d 35be 80f2 05be f14b 93bd 1225 c4bd
00000170: fc9e cd3d 3451 30bd 97f9 f93d 855e 4dbb
00000180: 7aa5 103e f544 e7bd 9921 1c3e 0c25 02be
00000190: e66b 55be 694e 9a3b 2e97 1a3e 275f f1bd
000001a0: 0dba 533d b7e3 08be c5fa 9bbd 7cbb b33d
000001b0: b346 1b3d 9ca3 33bd cb83 2b3e 78eb cfbd
000001c0: 7b02 563d 0e13 303e 49e1 05be 49c3 093e
000001d0: 1d46 493e b66c a5bd 2dd5 1dbd 4fc9 1f3e
000001e0: 5f32 513e 8cb2 4ebe 3b9a 96bd a6b7 aabd
000001f0: 0705 bdbc 61b7 253d c86b ecbd e9f3 c23d
00000200: 0208 913d 1a26 b33d 7baa 60be e020 0e3e
00000210: 93f8 3abe efe8 75bd 4a0d 913d 5dd9 423d
00000220: 9afb 4cbe c9d9 bf3d e0b8 14be 51e8 f2bd
00000230: 8a90 bdbd c07b b13d 4da7 d93d 2575 2b3e
00000240: a867 053d fe40 213e d2ce 4d3e aeae 81bd
00000250: fd2c 1bbe aae8 8fbd 498c 23be 1990 193d
00000260: 481b d9bd 1c53 ce3d c421 c5bb c5c5 553d
00000270: 6690 39be a748 22be e53b 5f3e 92e3 083e
00000280: eba9 0d3e 0dc5 5a3c bef9 1abe 6a37 03bc
00000290: e823 ac3d fd15 19be ee75 05be 9495 a23c
000002a0: 125b 1fbe db75 a13d 4a5a 4cbe 21df b5bd
000002b0: 9c93 7f3d fbe1 3bbe c988 58be bec4 353e
000002c0: 63db 953a 5900 9a3d dba4 033e 660f 1c3e
000002d0: d239 ecbd 4f98 a1bc 4c62 23be 4edd acbd
000002e0: ab97 27be ce8f 4fbe 97fe 4dbe bf3b 0bbe
000002f0: f877 aa3d 494a 023e cb90 bd3d b5fd 483d
00000300: 7a18 8a3c 099f 10be ea9f 0fbe b77d 90bc
00000310: bc41 0bbe d20c aa3d 99c1 13be a051 55bd
00000320: e368 0c3e 0e69 d83c b910 513d edcb 5b3e
00000330: 8076 1cbe cfa3 9e3c 023a 6bbe 7658 5cbe
00000340: 03ee 4cbe 6913 f6bc 5b8e 12be b46d 39be
00000350: d377 c53d 238f 1abe d7f1 5bbe 33eb 17bd
00000360: 7fc6 5abe 0d05 c13d 03c3 fb3c 718a 36bd
00000370: 32a2 e2bd bd2c 23bd cbb3 d63c 9016 db3d
00000380: 9010 0abb 07de 5abe 76b7 513d 88a8 5ebe
00000390: c0c2 9f3d a278 393e 0683 0e3e 4673 223e
000003a0: 9d02 86bd e662 3ebe e58a 273e 314f 53be
000003b0: 5aa3 06bc f28c 5bbd 58ee 1d3e 52dd dd3d
000003c0: c42c e6bd c50e a4bd a235 d7bd 751a 45be
000003d0: 9efe c5bd a6d6 1cbe 0504 69be 6b17 4abe
000003e0: b51f 82bc cb1b 04be 2285 be3c 53d9 12be
000003f0: 9c70 443d 8043 03be 2527 d23c a18e 213e
0.039870564 -0.15250808 0.19757417 -0.0055146627 -0.19453244 0.010306735 -0.10768306 -0.023602871
-0.13958666 0.16661595 0.0338405 0.026117465 -0.08659792 -0.2081468 -0.053332914 0.044258427
-0.16068545 0.1754681 -0.10346385 -0.041067295 -0.10461106 0.0270449 0.06508991 0.09885287
-0.16845103 -0.0032637212 -0.19495423 -0.16729598 -0.04817951 0.072018 -0.11029935 -0.13564412
-0.1804321 -0.22853607 0.1322278 0.07067604 -0.11429169 -0.1677873 -0.1979295 0.07430317
0.107272394 -0.13794528 -0.19349962 0.011961886 0.20886992 -0.16186924 0.056301072 -0.064449094
0.06879321 -0.13980782 -0.076425426 0.054030914 -0.063310385 -0.06476024 0.031934224 -0.022614779
0.0585518 0.08930156 0.067940146 -0.044829343 0.08719334 -0.026643215 -0.13108215 -0.0647047
0.17929618 -0.17826076 0.13343629 0.055012494 -0.19200495 0.092042476 0.15896453 0.19917476
-0.066446334 -0.005181625 -0.044158306 0.16411927 -0.17647451 -0.16936858 -0.123981565 -0.093664266
0.13665943 -0.01118632 0.15591902 -0.14821689 0.10772279 -0.04823847 0.14281532 0.20887974
-0.17729948 -0.13080788 -0.07192219 -0.09577383 0.100400895 -0.04304619 0.122058086 -0.0031336856
0.14125624 -0.112924494 0.15247191 -0.12709445 -0.20841941 0.0047090543 0.15096733 -0.11785727
0.051691104 -0.13368116 -0.0761619 0.08775994 0.03790922 -0.043857202 0.16749494 -0.10152334
0.05224846 0.17194769 -0.1307422 0.13453402 0.19655652 -0.080773756 -0.03853338 0.15604137
0.20429371 -0.20185298 -0.07353636 -0.083358094 -0.023073686 0.040458087 -0.11543995 0.095191784
0.070816055 0.08747502 -0.21940033 0.13879728 -0.18258886 -0.060036596 0.07082613 0.047570575
-0.20017853 0.09367711 -0.14523649 -0.11860717 -0.09256084 0.086661816 0.10627613 0.16743906
0.032569557 0.15747449 0.20098427 -0.06332146 -0.1515388 -0.07026799 -0.15971483 0.037490938
-0.106009066 0.100744456 -0.006015988 0.05219056 -0.1812149 -0.15848027 0.21800192 0.13368061
0.1383435 0.013352645 -0.15134332 -0.008008817 0.08405286 -0.14949794 -0.13033268 0.019846715
-0.15562084 0.07883807 -0.19956318 -0.08880449 0.06239663 -0.18347923 -0.2114593 0.17750832
0.001143318 0.075195976 0.12855856 0.15240249 -0.11534466 -0.019725947 -0.15955466 -0.08440648
-0.1636645 -0.20269701 -0.2011665 -0.1359701 0.083236635 0.1272365 0.09256133 0.04907008
0.016857374 -0.14123167 -0.14025846 -0.01763807 -0.13599294 0.083032265 -0.1442932 -0.052079797
0.13711886 0.026417281 0.05104134 0.2146451 -0.15279579 0.01936522 -0.22971347 -0.2151812
-0.2001267 -0.030038552 -0.14312117 -0.18108255 0.09641995 -0.15093665 -0.21478973 -0.037089538
-0.21364783 0.094247915 0.030732637 -0.04456562 -0.110660926 -0.039837588 0.026208779 0.10697663
-0.0021067 -0.21373759 0.051200353 -0.21743977 0.078008175 0.18112424 0.13917169 0.15864286
-0.06543467 -0.18592414 0.16361578 -0.20635678 -0.008217657 -0.053601213 0.15422952 0.10833229
-0.11239007 -0.080106296 -0.105082765 -0.19248374 -0.09667705 -0.15316257 -0.2275544 -0.19735496
-0.01588426 -0.12901227 0.023256842 -0.14340715 0.047958955 -0.12818718 0.025653431 0.15777065

model.0.bias f4 [16]
00000000: c3b5 d0bd b01d ac3d 41aa cfbd 456f 343e
00000010: da14 81bd 2f6e a93d fbd1 42be c153 373e
00000020: 2c73 2abe 654a 833d b7e7 96bd 89d8 a53d
00000030: 0770 2dbe 0a0f 743d 3f5e acbd 09e3 113e
-0.10190918 0.084041 -0.10139895 0.17620571 -0.06302805 0.08272969 -0.19025414 0.17903043
-0.16645497 0.06410674 -0.07368415 0.080979414 -0.16937266 0.059584655 -0.084164135 0.14246763

model.2.weight f4 [1, 16]
00000000: 7530 e43c 0c84 f73d 586e 12be 4b47 08be
00000010: cc36 643d fd6a 533d 1a6b 5ebd d1ea 103e
00000020: 5620 023e bf8f 873d 7a7c 373e 8998 093e
00000030: 6634 91bd 9e55 03be 5b51 88bd 0364 95bd
0.027855137 0.12085733 -0.14299905 -0.13308446 0.05571632 0.051615704 -0.05430136 0.14152075
0.12707648 0.06619214 0.17918578 0.13437094 -0.07090072 -0.12825629 -0.06656142 -0.07294466
