mgt8803/assignments/AS8/outputs/model_step3_ENERGY.pt (torch, 2600 bytes, 3 tensors)

model.0.weight f4 [4, 24]
00000000: fde8 a4bd 7b6c 27be a197 4f3d 5c69 713d
00000010: d776 b73c 5a0f 8cbd c710 81be d67b 89be
00000020: a73f 283e b162 e5bd a7fe 503e 093b 543d
00000030: 00cf 76bb f596 d7be c675 aa3d 6595 acbd
00000040: 1ae5 16bc 9420 03be 7a53 293e 061c 8dbe
00000050: ef91 26be a5d1 e83d 1ec8 bfbd 1fa0 21be
00000060: 1193 99bd 85bd 00bd a762 923d 11fd 0c3e
00000070: 9085 cfbd b2e3 20be 318d 2f3d 9cc6 20bd
00000080: c8ab 2d3c 3e0d 0cbe 0569 19be e088 133e
00000090: 20e1 793d f04a cebd c8f0 4d3e 0d77 2ebd
000000a0: 9b76 63bd 96ee 643d 5a40 a63d 88e1 abbe
000000b0: bb6d 9fbe 1cc1 813e 26a3 a13d a074 27bc
000000c0: 8b9f 383d e3d1 cebd e168 313e 94e2 333e
000000d0: 086a dc3d 1e55 ddbd 8d75 4c3e 7c95 3abb
000000e0: 7737 92be d1a6 98bd b768 78bd 99f0 f6bd
000000f0: 2253 f7bd 8c96 bc3e 2df0 df3c 9aae 603e
00000100: dba5 5abd ba80 8b3e 29e1 c8bd 083f 723d
00000110: e527 393d 12a2 41bb fda3 183e 78d4 e33d
00000120: fca3 ccbd 67ea 31be a038 33bd 6c8a 413e
00000130: 6c02 2f3e e1dd c13d 1320 03be a23e 2bbd
00000140: c286 29be 3771 e23d 945a f33d 0b86 78be
00000150: 7c81 4fbe f632 aa3e a02c 85bc f4f6 a9ba
00000160: 40a2 b1bd 5026 b5bd ac1d e8bd 5803 913e
00000170: a8a9 553e d9d0 e73d 5779 c1bd a982 5e3e
-0.080522515 -0.16349976 0.050681714 0.05893837 0.022395534 -0.068388656 -0.25208113 -0.26852292
0.16430531 -0.112004645 0.20409642 0.051814113 -0.0037660003 -0.4210736 0.08323245 -0.08426932
-0.0092098955 -0.12805396 0.1653575 -0.27560443 -0.16266607 0.113681115 -0.09364341 -0.15783738
-0.07498754 -0.03143074 0.07147723 0.13768412 -0.10132897 -0.15711859 0.04285926 -0.03925191
0.010600038 -0.13676926 -0.14981468 0.14407682 0.06100571 -0.10072887 0.20111382 -0.042594004
-0.055533033 0.055891596 0.08117743 -0.33570504 -0.31138405 0.25342643 0.07892446 -0.010220677
0.045074027 -0.100986265 0.17325164 0.17566901 0.10762411 -0.108072504 0.19966717 -0.0028470447
-0.2855794 -0.07453693 -0.06064674 -0.12057609 -0.12076403 0.36833608 0.027336204 0.21941605
-0.05338083 0.27246648 -0.09808571 0.059142143 0.045204062 -0.0029546064 0.14906307 0.111245096
-0.09992215 -0.17374574 -0.043755174 0.1890046 0.17090768 0.09466148 -0.12805204 -0.04180778
-0.16555312 0.1105675 0.11882511 -0.24269883 -0.20264238 0.33242005 -0.01625663 -0.0012967275
-0.08673525 -0.08845198 -0.113337845 0.28322864 0.208655 0.113191314 -0.09446972 0.2172953

model.0.bias f4 [4]
00000000: d186 1bbd 738f 563e bc05 e5bd ee9a efbd
-0.037970368 0.20953159 -0.11182734 -0.11699472

model.2.weight f4 [1, 4]
00000000: 4ad8 bbbd 291e 00bf 7baf ac3e 7534 8e3e
-0.09172113 -0.5004602 0.3372763 0.27774397
