mgt8803/assignments/AS8/outputs/model_step3_FIAT_EQUITY_GOLD_ENERGY.pt (torch, 6384 bytes, 3 tensors)

model.0.weight f4 [16, 60]
0	0x3d0131c8	0.031541616
1	0x3cd8f8a1	0.026485743
2	0x3d9f2562	0.07770802
3	0xbdd1c3be	-0.10242413
4	0xbce51528	-0.02796419
5	0x3d9873db	0.07443973
6	0xbd7d7746	-0.061881326
7	0xbc31d984	-0.010855082
8	0xbe1695f1	-0.14705636
9	0xbdc99c8e	-0.098443136
10	0x3d8c755a	0.068583205
11	0x3d65fcb7	0.05614921
12	0xbde3de2d	-0.11126361
13	0x3dcc0472	0.099617854
14	0xbde46c32	-0.11153449
15	0x3bccdfc2	0.00625226
16	0xbdb3e89f	-0.08784603
17	0x3d14f7c7	0.03636911
18	0xbcc22bfb	-0.023702612
19	0x3dc553d1	0.09635127
20	0x3d7b4421	0.06134427
21	0xbd31aaaf	-0.043375667
22	0x3d480fb5	0.048843104
23	0xbd8b7eae	-0.068112716
24	0x3d244019	0.04010019
25	0xbc1cb850	-0.009565428
26	0xbd8bd1c4	-0.06827119
27	0x3d5f1b8a	0.054469623
28	0xbdd97a54	-0.10619035
29	0x3dcd0f72	0.100127116
30	0x3cfb0fcd	0.030647183
31	0x3d968d11	0.07351125
32	0xbb5bae8c	-0.0033520786
33	0xbda09d32	-0.078424826
34	0x3cb62249	0.022233145
35	0xbd062ff1	-0.032760564
36	0x3bf0f07a	0.007352886
37	0x3d89f12c	0.06735453
38	0x3c7ece7e	0.015552161
39	0x3db13e23	0.0865443
40	0xbd955938	-0.07292408
41	0xbd5903a2	-0.05298198
42	0xbd8b9719	-0.06815929
43	0x3d357646	0.044302247
44	0xbdbbfa60	-0.091786146
45	0x3d50a072	0.050934263
46	0x3d9eacac	0.07747778
47	0x3ba18ffd	0.004930495
48	0x3c93a9d8	0.018025324
49	0xbd9e80b0	-0.07739389
50	0x3e03c379	0.12867536
51	0xbaae18a4	-0.001328249
52	0xbc74ec6b	-0.014948945
53	0x3d384024	0.044983044
54	0xbd3fa2bd	-0.04678606
55	0x3e135c54	0.14390689
56	0x3d31ad06	0.0433779
57	0x3c392502	0.011300327
58	0x3db43719	0.087995715
59	0xbcc0bcf8	-0.023527607
60	0xbd1219e9	-0.03566924
61	0x3d2ef72e	0.042716198
62	0x3d60b419	0.054859255
63	0x3df5e06c	0.12005696
64	0xbd8e2434	-0.06940499
65	0xbd5908dc	-0.052986965
66	0x3dbb8b31	0.09157408
67	0xbd770162	-0.060304053
68	0xbe039e0f	-0.12853263
69	0x3d8f69ca	0.070025995
70	0xbdcc18e5	-0.09965686
71	0x3da71daf	0.081599586
72	0x3d8ca6a2	0.0686772
73	0x3d0591a7	0.032609608
74	0xbd822c52	-0.0635611
75	0xbd113e0c	-0.035459563
76	0xbdd2da1d	-0.10295508
77	0xbdd38b74	-0.10329333
78	0xbe0d84c5	-0.13820179
79	0xbdc014ab	-0.09378942
80	0xba2150a4	-0.0006153679
81	0xba8f2075	-0.0010919707
82	0xbd0503ea	-0.032474436
83	0x3d95f9e3	0.07323053
84	0x3da9a313	0.08283057
85	0x3de664f2	0.112497225
86	0xbdf7da3e	-0.12102173
87	0xbd833114	-0.06405845
88	0xbdd96600	-0.10615158
89	0xbdd13441	-0.10215045
90	0x3c5a4fff	0.013324737
91	0x3d9c1d4a	0.07622774
92	0x3d99282a	0.07478364
93	0x3d642f48	0.055709153
94	0xbd147a89	-0.03624967
95	0xbc351da5	-0.011054431
96	0xbd2d8631	-0.042364303
97	0x3c128c3d	0.008944568
98	0xbc6b4a65	-0.014360999
99	0x3dc31a91	0.095265515
100	0x3d16afe8	0.03678885
101	0x3ce78c3d	0.028265113
102	0x38c59350	9.421131e-05
103	0xbbba7022	-0.005689637
104	0xbc0d1e62	-0.008613201
105	0xbd4e9f47	-0.050444867
106	0x3d26b231	0.04069728
107	0x3d414bc8	0.04719141
108	0x3d225669	0.03963319
109	0xbdc67eaa	-0.09692128
110	0x3c9ccd36	0.019140821
111	0x3d8e98e8	0.06962758
112	0x3d9672bd	0.07346103
113	0xbdb63013	-0.08895888
114	0xbda7a6c5	-0.08186106
115	0x3de58664	0.112072736
116	0xbd901bf8	-0.070365846
117	0x3d59ece4	0.053204432
118	0xbe015441	-0.12629797
119	0x3d99da7e	0.07512377
120	0xbd4128d1	-0.047158066
121	0x3bf3a1e4	0.0074350704
122	0xbcb711d1	-0.022347363
123	0x3d86492b	0.065569244
124	0x3d1d6d2f	0.038434204
125	0x3dbb5656	0.09147327
126	0x3db368a4	0.08760193
127	0xbda60952	-0.081072465
128	0x3bf2c1b9	0.0074083474
129	0xbdb09d89	-0.086237974
130	0x3dd5ad51	0.10433448
131	0xbd95f515	-0.07322136
132	0x3d08f169	0.03343335
133	0xbd1a70ef	-0.037705358
134	0x3cbc0810	0.022953063
135	0x3ddf70ce	0.10910188
136	0x3dc305c7	0.09522586
137	0xbdca1f3a	-0.09869237
138	0xbcf44672	-0.029818747
139	0xbdb795fa	-0.08964153
140	0xbd1b4f55	-0.037917454
141	0xbc0e4abd	-0.008684811
142	0x3dd09202	0.10184099
143	0xbe1353a8	-0.14387381
144	0x3d53c2e1	0.051699523
145	0xbd8ac6e5	-0.06776217
146	0x3c3bd796	0.011464974
147	0x3d2ae10b	0.041718524
148	0xbdc77111	-0.097383626
149	0xbdd9c803	-0.10633852
150	0x3d6679e2	0.05626858
151	0xbdccc9b9	-0.09999413
152	0xbd44f405	-0.048084278
153	0xbd7674e1	-0.06017006
154	0xbdd06602	-0.101757064
155	0xbd9b96d1	-0.07597125
156	0x3e0ff7ad	0.14059325
157	0xbbf0d10a	-0.007349138
158	0xbde10e56	-0.109890625
159	0x3b03b1a6	0.00200949
160	0xbd83b987	-0.06431871
161	0x3d19b1b6	0.037522994
162	0xbdb4aee7	-0.088224225
163	0xbd7db4ea	-0.06194011
164	0x3d8891bd	0.06668422
165	0xbd85487a	-0.065079644
166	0x3b4829f9	0.0030542596
167	0xbdbf4549	-0.09339387
168	0xbcdb1edd	-0.026748115
169	0xbdb0e72a	-0.08637841
170	0xbc973265	-0.018456647
171	0xbd09b7ac	-0.03362243
172	0x3e1926db	0.14956228
173	0xbd75f919	-0.06005201
174	0xbced03a7	-0.028932406
175	0xbb4ab740	-0.003093198
176	0x3dc94b60	0.0982883
177	0xbd823681	-0.06358052
178	0xbe0ee741	-0.13955404
179	0xbb7266cb	-0.003698754
180	0x3ddf33c4	0.108985454
181	0xbd77bf54	-0.0604852
182	0xbd5f47c3	-0.054511797
183	0xbd3be4b8	-0.04587242
184	0xbda69dff	-0.08135604
185	0xbd7f538c	-0.062335536
186	0x3d1ea116	0.038727842
187	0x3d95fd37	0.073236875
188	0xbe095a50	-0.13413358
189	0x3db9d1e8	0.090732396
190	0x3c8bf499	0.017084407
191	0xba126e39	-0.00055858825
192	0xbdd25524	-0.102701455
193	0x3da903b0	0.082526565
194	0x3ddc6726	0.107618615
195	0xbacf2f31	-0.0015806911
196	0x3ca0cc95	0.019628802
197	0xbd53f99e	-0.051751725
198	0xbb37e4e3	-0.002806001
199	0xbdaba97e	-0.083819374
200	0x3da482f7	0.08032792
201	0xbd7cc42a	-0.061710514
202	0x3d908df4	0.070583254
203	0xbcfb2447	-0.030656947
204	0x3dff778c	0.12473974
205	0xbb2c2a79	-0.0026270433
206	0xbdd56a0a	-0.10420616
207	0xbe10e600	-0.14150238
208	0xbb7f1eb3	-0.003892821
209	0xbdbd3f5d	-0.09240601
210	0xbd51a8d0	-0.051186383
211	0xbdd4e6df	-0.10395598
212	0x3d8bc346	0.06824355
213	0x3dc33d5a	0.09533186
214	0xbd350819	-0.044197176
215	0xbdc27882	-0.09495641
216	0x3daa5dca	0.0831867
217	0x3dcd4d93	0.10024562
218	0xbdc437fc	-0.09580991
219	0x3ae50c2d	0.0017474942
220	0x3d22f1ff	0.039781567
221	0x3dbbbeab	0.091672264
222	0x3db524a0	0.08844876
223	0x3d188e86	0.037245296
224	0xbcea255c	-0.028582267
225	0xbc8d023d	-0.017212981
226	0x3d605f45	0.054778356
227	0x3d908176	0.07055943
228	0x3c95e95d	0.018299753
229	0x3d5acca2	0.05341781
230	0x3d247414	0.040149763
231	0x3dcdfae8	0.10057622
232	0x3d6d2652	0.057897873
233	0xbd8ba9bf	-0.06819486
234	0xbe10003a	-0.14062586
235	0x3e181c74	0.14854604
236	0xbdc4697e	-0.095904335
237	0xbbb684e9	-0.0055700433
238	0xbda11ad1	-0.07866443
239	0x3c996668	0.018725589
240	0xbdbcc43d	-0.09217117
241	0xbdcf1899	-0.101121135
242	0x3c451cd0	0.012030795
243	0xbcaa0a2f	-0.020756809
244	0x3dca2f52	0.09872307
245	0x3c3070f6	0.0107691195
246	0x3e18c11c	0.14917415
247	0xbd1a41ae	-0.037660293
248	0x3d928481	0.07154179
249	0x3d6f20da	0.05838094
250	0xbc4e3b56	-0.012587389
251	0xbdfb43fb	-0.122688256
252	0xbd87d370	-0.066321254
253	0x3d99d594	0.0751144
254	0xbdf64b69	-0.12026102
255	0xbda158d7	-0.07878273

model.0.bias f4 [16]
0	0xbd7662e7	-0.060152914
1	0x3d13073d	0.035895575
2	0xbdc9fdaa	-0.09862836
3	0xbd8fbeae	-0.07018791
4	0xbd1bc691	-0.038031165
5	0xbd8352a3	-0.06412246
6	0x3e0107d2	0.1260064
7	0x3d88f01b	0.066864215
8	0xb91258a0	-0.0001395666
9	0x3d526036	0.051361285
10	0x3dac0148	0.08398682
11	0x3da4e9a9	0.0805238
12	0xbe07ac89	-0.1324941
13	0xbdd328e8	-0.103105366
14	0x3cc5109f	0.024055777
15	0x3da54db9	0.08071465

model.2.weight f4 [1, 16]
0	0x3dd4227c	0.1035814
1	0x3e2bacdb	0.16765158
2	0x3d4d47a9	0.05011717
3	0x3e62afa9	0.22137322
4	0xbe09a5b3	-0.13442115
5	0xbe7b79f0	-0.24558234
6	0xbe7cb779	-0.24679364
7	0xbdedd78b	-0.11613377
8	0xbe7063d4	-0.23475581
9	0xbc94c940	-0.01816237
10	0x3e35d922	0.17758611
11	0x3e05646d	0.1302659
12	0x3da97fc5	0.08276323
13	0x3e112219	0.14173163
14	0xbd2aa419	-0.041660402
15	0xbd7203d9	-0.0590857
