mgt8803/assignments/AS8/outputs/model_step3_ENERGY.pt (torch, 2600 bytes, 3 tensors)

model.0.weight f4 [4, 24]
0.13712364 -0.07830029 0.047303803 -0.16669671 0.15407756 0.13057697 -0.030515365 -0.17621611
0.04261813 0.1353407 -0.010981749 -0.13304274 0.06857094 0.15228473 -0.04435187 0.17957808
0.21702507 -0.010202301 -0.20212749 0.057463504 0.04839763 0.105790734 0.028437123 0.015854448
-0.18548359 0.09713907 0.14401096 0.13149728 -0.12910351 -0.09476891 0.044056874 -0.11269482
-0.09890483 0.1279717 -0.15266837 -0.024736382 0.054376643 0.15736924 -0.10297703 0.017896032
-0.1560306 0.026938781 -0.07245009 -0.07732009 0.14787965 0.15513429 -0.03837043 0.058938902
0.016126972 -0.032408997 -0.032724284 0.065294735 -0.12544188 0.057907492 0.17355968 0.15975593
-0.12761393 -0.16193573 0.11633493 0.11429647 0.0060800887 -0.038860664 -0.040969603 -0.06543203
-0.035769112 -0.17220445 0.017433982 0.1573922 0.108955674 0.1491151 0.013714717 0.0089409165
-0.007263425 0.022778602 -0.13473904 0.0794126 0.13093005 0.12139357 0.1819487 0.116604164
-0.019648703 0.07818599 -0.15898001 0.050725635 0.10701468 0.18790366 -0.08785751 0.09520964
0.076724514 0.14525145 -0.1559753 0.010969914 -0.102046706 -0.07793817 0.105245374 0.096204735
00000000: 246a 0c3e e75b a0bd a2c1 413d 8bb2 2abe
00000010: 82c6 1d3e f8b5 053e 5cfb f9bc ff71 34be
00000020: 5990 2e3d c196 0a3e cbec 33bc 5b3c 08be
00000030: ec6e 8c3d 87f0 1b3e 4eaa 35bd 51e3 373e
00000040: d23b 5e3e 8d27 27bc 82fa 4ebe da5e 6b3d
00000050: 983c 463d d0a8 d83d f8f4 e83c 30e1 813c
00000060: 69ef 3dbe d9f0 c63d 9c77 133e 39a7 063e
00000070: b633 04be 3416 c2bd fb74 343d 8bcc e6bd
00000080: 9e8e cabd 030b 033e 1955 1cbe f4a3 cabc
00000090: 0bba 5e3d 6725 213e 9fe5 d2bd b39a 923c
000000a0: 7cc6 1fbe b8ae dc3c b660 94bd ff59 9ebd
000000b0: c36d 173e 86db 1e3e 502a 1dbd eb69 713d
000000c0: b61c 843c 4cbf 04bd e609 06bd 3fb9 853d
000000d0: d673 00be 6830 6d3d a1b9 313e 0f97 233e
000000e0: 3aad 02be 7bd2 25be 0241 ee3d 4514 ea3d
000000f0: 7b3b c73b 5c2c 1fbd becf 27bd 3a01 86bd
00000100: a282 12bd 5d56 30be b6d1 8e3c 6c2b 213e
00000110: 2724 df3d a1b1 183e b1b3 603c ec7c 123c
00000120: 0602 eebb 319a ba3c 08f9 09be 13a3 a23d
00000130: 8712 063e 319d f83d c350 3a3e 2ace ee3d
00000140: 51f6 a0bc fa1f a03d a8cb 22be afc5 4f3d
00000150: 832a db3d d169 403e a3ee b3bd 46fd c23d
00000160: be21 9d3d ccbc 143e fdb7 1fbe 27bb 333c
00000170: ddfd d0bd 0c9e 9fbd e38a d73d fd06 c53d

model.0.bias f4 [4]
-0.122205205 -0.0017489273 -0.035002764 0.0011636172
00000000: b946 fabd 433c e5ba 0f5f 0fbd 8484 983a

model.2.weight f4 [1, 4]
0.26512375 0.035348307 -0.07815187 -0.3313991
00000000: 4dbe 873e 63c9 103d 160e a0bd 25ad a9be
