mgt8803/assignments/AS8/outputs/model_step1_fiat.pt (torch, 2584 bytes, 3 tensors)

model.0.weight f4 [4, 24]
0	0x3e2701da	0.163093
1	0xbc030e18	-0.007998966
2	0x3d63448d	0.055485297
3	0x3d290485	0.041264076
4	0x3da3d15e	0.07998918
5	0x3d32c700	0.043646812
6	0x3d61df13	0.05514438
7	0x3e087c57	0.13328682
8	0xbca324ef	-0.019915072
9	0xbd8fe4b6	-0.07026045
10	0x3c55a4bc	0.013039764
11	0x3e0cde4b	0.13756673
12	0x3d52e69d	0.05148946
13	0x3ca3af9f	0.019981204
14	0xbd3c2ffb	-0.045944195
15	0xbe1b6482	-0.1517506
16	0xbe24eb85	-0.16105469
17	0x3d70abe3	0.058757674
18	0x3df18a57	0.11793964
19	0xbe58444c	-0.21119803
20	0x3e1fe6bd	0.15615363
21	0xbd9e1f7b	-0.07720848
22	0x3e183494	0.14863807
23	0xbe183846	-0.14865217
24	0xbd7da5e7	-0.061925795
25	0xbd9f82e1	-0.07788635
26	0x3e5eb6dd	0.21749444
27	0xbdeba380	-0.115057945
28	0x3e250fbe	0.16119286
29	0xbd01ae24	-0.031660214
30	0xbe1821f7	-0.14856707
31	0x3d402b27	0.046916153
32	0x3d14501c	0.03620921
33	0x3e695522	0.22786382
34	0x3e19f164	0.1503349
35	0xbdf5ba56	-0.119984314
36	0xbe099ed4	-0.13439494
37	0x3d51521c	0.051103696
38	0x3e36f4be	0.17866799
39	0xbc9e5fe9	-0.019332843
40	0x3e388822	0.1802068
41	0xbe3276fa	-0.17428198
42	0xbc10301c	-0.008800533
43	0x3d82878e	0.06373511
44	0x3e3cdf77	0.1844462
45	0xbdd34c00	-0.1031723
46	0x3de5e2bf	0.11224889
47	0xbda65e52	-0.08123459
48	0x3cca14bc	0.02466809
49	0xbd8d70d3	-0.06906285
50	0x3e22aa9f	0.158854
51	0x3d8dd984	0.069262534
52	0xbd81fff8	-0.0634765
53	0x3d8abefd	0.067747094
54	0xbe3bfe02	-0.18358615
55	0x3c1511e4	0.009098504
56	0x3e30bc06	0.17259225
57	0xbdc343fd	-0.09534452
58	0xbdd66c5c	-0.10469887
59	0x3d87b585	0.06626419
60	0xbdda5fc3	-0.10662796
61	0xbe318a5d	-0.17337938
62	0x3dfceb30	0.12349546
63	0x3e219156	0.15778098
64	0xbd843c7f	-0.06456851
65	0xbd9d0f2b	-0.07668909
66	0x3e42889d	0.18997426
67	0xbc5f0d4a	-0.013614008
68	0x3d091c42	0.033474214
69	0x3e25fba1	0.1620927
70	0xbdffeaff	-0.12495994
71	0x3d72975a	0.05922637
72	0xb9e2fba4	-0.00043293566
73	0x3c8f09fd	0.017460817
74	0x3dd5ff6f	0.10449111
75	0xbe000cf9	-0.12504949
76	0xbd92561a	-0.07145329
77	0xbe27ab6d	-0.16373987
78	0xbcd7978c	-0.02631738
79	0x3d94b9db	0.072620116
80	0xbe0db33b	-0.13837902
81	0x3e272e20	0.16326189
82	0xbe428074	-0.18994313
83	0x3e5eba38	0.21750724
84	0x3da77e8e	0.08178435
85	0x3e0dc091	0.1384299
86	0x3e34d2e0	0.17658567
87	0x3e18cc33	0.14921646
88	0xbe10684e	-0.14102289
89	0x3e11e34d	0.14246865
90	0xbe34f120	-0.17670107
91	0x3e0d16ea	0.13778272
92	0xbdbcae88	-0.09212977
93	0xbcc7fc35	-0.024412254
94	0xbde54f80	-0.11196804
95	0xbdd6720e	-0.10470973

model.0.bias f4 [4]
0	0xbdea4dae	-0.114405975
1	0x3e2afdda	0.16698399
2	0x3dbb5b1f	0.09148239
3	0x3dc7d8bf	0.09758138

model.2.weight f4 [1, 4]
0	0xbeeb2425	-0.45926014
1	0xbecaca4d	-0.39607468
2	0x3ed2f6d3	0.41203937
3	0x3e804166	0.25049895
