mgt8803/assignments/AS8/outputs/model_step3_FIAT.pt (torch, 2968 bytes, 3 tensors)

model.0.weight f4 [8, 24]
0.08027831 -0.067174815 0.1558554 -0.10859003 -0.11070318 -0.0680622 0.046859823 -0.09873723
-0.08139489 -0.124946855 -0.13958782 -0.08780966 0.1537964 0.016660579 -0.1999539 0.031868577
-0.01901469 -0.13424462 -0.15627255 0.07040696 -0.13773884 -0.19829547 -0.18483573 -0.02278661
-0.22714967 0.01786291 0.16543695 -0.02745264 -0.14926012 -0.114280105 -0.019217413 0.015234198
0.16404487 0.16430345 -0.08327968 -0.12421384 0.13071461 0.1460777 -0.12388404 0.20549546
0.22637637 -0.043448698 0.08495732 0.017248023 -0.14860871 -0.078046314 0.11623981 0.19362949
0.035136994 0.10650217 0.16206577 -0.04859769 0.05875147 0.038162973 -0.18065616 -0.20258035
-0.005461059 -0.053505212 0.12825045 -0.041425537 0.15081285 -0.055929508 0.19861495 -0.1638907
-0.17323314 -0.11606095 0.20067 0.050976783 -0.12250523 -0.0134159755 -0.019931206 -0.17630816
-0.048802704 0.19214375 -0.1718568 -0.048846204 0.11825302 -0.19894466 -0.0798592 -0.0072405436
0.21869989 -0.119964935 0.2190532 -0.050319657 -0.015805218 -0.13006538 0.09119504 0.11354878
0.16052583 0.018820234 -0.017567972 -0.08775105 -0.06090104 -0.21040471 0.076292336 0.020445531
-0.15239757 -0.05550467 -0.17584828 -0.012610873 0.20721991 0.13663284 0.16319771 0.013207946
0.090577796 0.062170893 0.041575514 0.13624875 -0.118138656 0.03962449 -0.03064072 0.031130863
0.15126325 0.15598388 -0.22080822 0.19966108 0.110065386 -0.08437212 -0.04302741 -0.122826554
-0.06063696 0.00881448 -0.12247385 0.104487464 -0.038868036 -0.0718018 0.14691606 0.13755225
-0.10107287 -0.20013928 0.114898324 0.15112944 -0.13697356 -0.0007685751 0.05488304 0.10673156
-0.08973826 0.12943405 -0.16625026 0.19984497 0.01968487 0.16248195 -0.13371418 -0.12566902
0.13569336 -0.085886754 -0.08878287 0.14393617 0.16881561 0.010581419 -0.052373283 -0.12336331
-0.07001072 0.17683119 -0.12496511 0.11241977 -0.061705094 -0.15576151 0.048039876 -0.12624496
-0.16971092 -0.096160255 0.16287678 0.121291794 0.111051954 -0.08659127 0.14592168 -0.039558392
-0.058882784 -0.06610694 -0.05985832 0.08888591 -0.013794478 0.115901336 0.16230534 -0.028536225
-0.014735043 -0.12299773 -0.1545334 -0.09470311 0.012151822 0.1213577 0.11362588 0.08813071
-0.12102776 0.109347105 0.19527787 0.00069266546 -0.17811333 -0.2302413 0.08393962 0.11537019
00000000: f468 a43d f392 89bd 8f98 1f3e 7364 debd
00000010: 59b8 e2bd 3264 8bbd 16f0 3f3d bf36 cabd
00000020: 5db2 a6bd 23e4 ffbd 1cf0 0ebe 8dd5 b3bd
00000030: ce7c 1d3e c47b 883c b7c0 4cbe a088 023d
00000040: b2c4 9bbc 6c77 09be e905 20be 8631 903d
00000050: 690b 0dbe f80d 4bbe 9445 3dbe fcaa babc
00000060: ec99 68be 3d55 923c 4e68 293e 5ce4 e0bc
00000070: a5d7 18be b00b eabd d66d 9dbc dc98 793c
00000080: 61fb 273e 2a3f 283e 898e aabd d363 febd
00000090: 0dda 053e 6595 153e eab6 fdbd 676d 523e
000000a0: 35cf 673e 43f7 31bd 1afe ad3d ba4b 8d3c
000000b0: e22c 18be bfd6 9fbd 230f ee3d cf46 463e
000000c0: cfeb 0f3d cf1d da3d 92f4 253e 5f0e 47bd
000000d0: 62a5 703d c750 1c3d eefd 38be 3971 4fbe
000000e0: aff2 b2bb 4828 5bbd 1654 033e d3ad 29bd
000000f0: af6e 1a3e 5716 65bd b861 4b3e f7d2 27be
00000100: 0764 31be 5db1 edbd 707c 4d3e 08cd 503d
00000110: 06e4 fabd aece 5bbc c546 a3bc 208a 34be
00000120: 58e5 47bd 55c1 443e 3bfb 2fbe f512 48bd
00000130: a42e f23d 26b8 4bbe 388d a3bd 1542 edbb
00000140: ddf2 5f3e 2db0 f5bd 7b4f 603e fc1b 4ebd
00000150: f279 81bc dc2f 05be 77c4 ba3d 438c e83d
00000160: e260 243e e42c 9a3c b5ea 8fbc d3b6 b3bd
00000170: 5e73 79bd 5574 57be 283f 9c3d 637d a73c
00000180: 1c0e 1cbe dd58 63bd 9211 34be d69d 4ebc
00000190: 7531 543e 7be9 0b3e 4d1d 273e 2466 583c
000001a0: da80 b93d e8a6 7e3d 164b 2a3d cb84 0b3e
000001b0: aef2 f1bd 4a4d 223d 3f02 fbbc 2706 ff3c
000001c0: c1e4 1a3e 3dba 1f3e 8d1b 62be f473 4c3e
000001d0: f669 e13d 4acb acbd 823d 30bd 7d8c fbbd
000001e0: 765e 78bd 9c6a 103c 92d3 fabd 86fd d53d
000001f0: 1734 1fbd d20c 93bd 2a71 163e 7fda 0c3e
00000200: 4bff cebd 50f1 4cbe d04f eb3d adc1 1a3e
00000210: cc42 0cbe 347a 49ba 0acd 603d 1396 da3d
00000220: b1c8 b7bd 5c8a 043e 823d 2abe 29a4 4c3e
00000230: 2a42 a13c ab61 263e 5fec 08be 61af 00be
00000240: 33f3 0a3e 65e5 afbd cbd3 b5bd 0164 133e
00000250: 00de 2c3e b05d 2d3c 5e85 56bd e7a5 fcbd
00000260: c861 8fbd 3c13 353e b5ed ffbd 563c e63d
00000270: 7bbe 7cbd f27f 1fbe 76c5 443d 5c46 01be
00000280: b3c8 2dbe abef c4bd 2cc9 263e d567 f83d
00000290: 356f e33d c456 b1bd 7e6c 153e fb07 22bd
000002a0: 132f 71bd 1363 87bd ff2d 75bd d109 b63d
000002b0: 3c02 62bc ae5d ed3d 5f33 263e cdc4 e9bc
000002c0: 406b 71bc 3ce6 fbbd 013e 1ebe b4f3 c1bd
000002d0: 7018 473c 638a f83d afb4 e83d e07d b43d
000002e0: 67dd f7bd 60f1 df3d ecf6 473e fe93 353a
000002f0: 5763 36be 60c4 6bbe 89e8 ab3d 3547 ec3d

model.0.bias f4 [8]
0.08993219 -0.09419773 0.02928115 0.19379303 -0.14797647 0.13246572 -0.22308095 -0.14631861
00000000: 5e2e b83d bdea c0bd 06df ef3c ae71 463e
00000010: 2587 17be 18a5 073e 556f 64be 8cd4 15be

model.2.weight f4 [1, 8]
0.004376944 -0.3114667 -0.25216195 -0.109912105 0.089845605 0.31517297 0.37049958 -0.14057893
00000000: 786c 8f3b 9078 9fbe 5f1b 81be 9919 e1bd
00000010: f900 b83d 5a5e a13e 1fb2 bd3e ecf3 0fbe
