mgt8803/assignments/AS8/outputs/model_step3_GOLD.pt (torch, 2968 bytes, 3 tensors)

model.0.weight f4 [8, 24]
00000000: ff99 d6bd 2b48 af3c 9f77 cbbd a671 e43d
00000010: 80d6 2f3e 8adc e43b f1bf 143e 3a61 eebd
00000020: b505 1e3e cff2 5b3e 88fb 423e 9437 cdbd
00000030: 6d12 723d 1e1e 3f3d f55f eebc 883e 35be
00000040: 322a 07be d458 2dbe ac89 69bd a64c f7bd
00000050: 0fc5 afbc a5b1 33bd 5dcb 733d 12d4 263e
00000060: 248e 2cbe 46f3 a53c ee21 363e c96a 993c
00000070: 74b2 acbd 0762 74bd 3ee5 063e 3e53 7b3d
00000080: f225 78bd 85e7 523e f667 363e 0681 913d
00000090: 50ef 31be eeb5 f1bd 3b69 8e3d dbbd 33be
000000a0: bcde 10be e17a 19bd 2fbe dbbd 5769 27be
000000b0: 66a0 f2bd c69c 2b3e 395a 673e 5664 593d
000000c0: 31a8 85bd c6a7 c9bd 51d6 3abd b42b c03d
000000d0: 4436 543b 3fbc 9f3c 9c76 39bc 3c89 9d3d
000000e0: c9ea 2abe afd5 873d e4a4 ab3d b977 1e3e
000000f0: 5b51 293d 55cf 39bc 2fec f73d 3525 573e
00000100: 644b 83bd a2c0 aa3d f4fe 693c ff5a 4abe
00000110: 6c9b 80bd 544b 003e b277 1dbd 3ce6 d23d
00000120: d0a0 753d deb2 19be a4e1 913d a049 ce3d
00000130: f8cf 17bd 20ce e53d 2b1b a7bd ccd7 2b3d
00000140: 6291 073e 1819 f7bd 9e41 173e 80af 033b
00000150: 6c18 153e 6620 30be 60b6 d93c 0207 4a3e
00000160: 7f30 4cbe 50ba 9e3d 80d5 47be 18a8 3a3e
00000170: 222d 89bd 28d8 cc3c 1085 a73d 14ab 39bd
00000180: 6a2e 803d 6575 e4bd 41ae 4dbc 890e 17be
00000190: 20ca 04be 01ea ec3d 8583 393d d11a 4f3d
000001a0: 694a 2e3e 600e 303e cd1c 3fbe 5764 22be
000001b0: fc25 5c3e 2358 44be d78c abbd 0192 283e
000001c0: 4f51 f7bd d909 393d 02a3 a03d 45e0 433d
000001d0: 6c63 94bd c75a 663d 7b81 d7bd e882 13be
000001e0: a672 f4bd 75aa 7ebd 5184 12be b527 b7bd
000001f0: 47a5 dcbd dce3 eebb 4bb6 2b3e 46b1 d9ba
00000200: 09fc a63d 6cb7 aabd 430e 39bd c10b 0f3e
00000210: 74f9 8cbd f623 28be 588a 533e a810 4dbc
00000220: b094 1abe ab00 25be f894 fd3d 7420 02be
00000230: fa47 203e 0ab0 c63d 5d06 4e3d 0152 e63d
00000240: 460a dcbd 0a85 58bd 48ce 8b3c dec0 cc3d
00000250: dc2f 60be 00d5 42be d33f 1bbe d750 953d
00000260: 89ab a13d 28e4 653e 7911 4fbd a25a 4dbd
00000270: 7743 d1bd bbfb 67bc 37e6 bc3d b6c7 e33d
00000280: ff12 babc 1469 ca3d fe8e 1a3d 587c 9f3d
00000290: f8d9 a43d cf37 6bbe ae7c fc3b 9f42 e8bb
000002a0: a5e0 b4bc a433 ccbd 608c 3cbd 1281 1a3e
000002b0: fbc4 e6bd 040a e3bd e80a 1cbe b4ab e33d
000002c0: 189f b13c d346 9e3d 54af 293e 3a09 fcbc
000002d0: 1f61 cb3d 3b10 26bd e001 593b 41f5 563d
000002e0: af97 5abe f369 cd3d aa93 de3c 2bdb 273e
000002f0: f132 93bd 1dd1 54bd b719 c43d f333 183d
-0.10478591 0.021396717 -0.09934925 0.11154489 0.17171669 0.006984298 0.14526345 -0.11639638
0.15431865 0.21479343 0.19041264 -0.10020366 0.059099603 0.04665958 -0.02909849 -0.17699635
-0.1319969 -0.16928416 -0.05701606 -0.120751664 -0.02145627 -0.043870587 0.059520114 0.16291836
-0.16851097 0.020257603 0.1778638 0.018727677 -0.08432475 -0.0596638 0.13173386 0.061358683
-0.060583062 0.2059613 0.17813095 0.071046874 -0.17376447 -0.118022785 0.06953665 -0.17552893
-0.14147466 -0.037470702 -0.10729634 -0.16348778 -0.11847 0.16759023 0.22593011 0.053074203
-0.065262206 -0.09846453 -0.045614544 0.09383336 0.0032380978 0.019498942 -0.011319783 0.07692191
-0.16691126 0.06632554 0.0838106 0.15475358 0.041337352 -0.011340936 0.12105595 0.21010287
-0.06410864 0.08337523 0.014281977 -0.19761275 -0.06279644 0.12528735 -0.03844423 0.1029782
0.059967816 -0.15009639 0.07123116 0.100726366 -0.03706357 0.11220956 -0.08159479 0.041953847
0.13239053 -0.12065333 0.14771125 0.002009362 0.14560097 -0.17199859 0.026576221 0.19729236
-0.19940375 0.0775038 -0.19515038 0.18228185 -0.066980615 0.025005415 0.081796765 -0.04532917
0.06258853 -0.11155204 -0.012553752 -0.14751638 -0.1296773 0.1156807 0.045291442 0.050562683
0.17020573 0.17192984 -0.1866333 -0.15858589 0.21498865 -0.19174246 -0.083764724 0.16461946
-0.12076055 0.045175407 0.07843591 0.047821302 -0.07245526 0.056238916 -0.10522743 -0.14405406
-0.1193593 -0.06217428 -0.14308287 -0.089431204 -0.10773712 -0.0072903465 0.16768758 -0.0016608618
0.08153541 -0.08335766 -0.045179617 0.13969328 -0.06883517 -0.16419968 0.20658243 -0.012516178
-0.15095782 -0.16113536 0.12381929 -0.12707692 0.15652457 0.097015455 0.050299037 0.1124611
-0.10744147 -0.05286125 0.017066136 0.09997724 -0.21893257 -0.19026566 -0.15161066 0.072908096
0.07894046 0.22450316 -0.050553773 -0.050135262 -0.10217946 -0.014159138 0.092235975 0.11122076
-0.022714136 0.09883323 0.037734024 0.077873886 0.08049387 -0.22970508 0.0077052927 -0.00708802
-0.022079775 -0.09970787 -0.04603231 0.15088299 -0.1126804 -0.11085895 -0.15238535 0.11116734
0.021682307 0.077283524 0.16570789 -0.030766118 0.09930634 -0.040542822 0.003311269 0.052479986
-0.21346925 0.10029974 0.027170021 0.163922 -0.07187451 -0.05195724 0.09575217 0.037158918

model.0.bias f4 [8]
00000000: a463 8d3d 9432 b1bd 5a3b eb3d 57c0 23be
00000010: a1c7 1dbe 5ef3 133c a932 76bc b0a2 30be
0.069037706 -0.08652225 0.1148593 -0.1599134 -0.15408184 0.009030191 -0.015026727 -0.1724956

model.2.weight f4 [1, 8]
00000000: 8dc4 623e 43e1 833e da48 59bd 230b 31be
00000010: e198 78be 114f 60be 9b64 653e f82c 89bd
0.2214529 0.257578 -0.053047992 -0.17289405 -0.24277069 -0.21905161 0.22401659 -0.0669803
