mgt8803/assignments/AS8/outputs/model_step3_FIAT_EQUITY_GOLD_ENERGY.pt (torch, 3376 bytes, 3 tensors)

model.0.weight f4 [4, 60]
0	0x3d8eeb6e	0.069784984
1	0xbca5b860	-0.020229518
2	0xbd45cff9	-0.04829404
3	0xbd268927	-0.040658142
4	0x3d634c43	0.05549265
5	0x3d4c4b20	0.049876332
6	0xbce13500	-0.027491093
7	0xbd9135e1	-0.07090355
8	0xbc75664d	-0.014978004
9	0x3d8f8577	0.07007878
10	0xbd9d500a	-0.07681282
11	0xbd9a52e4	-0.075353414
12	0xbdb07a3a	-0.08617063
13	0xbcb1b4fc	-0.021692745
14	0x3e0dc92e	0.13846275
15	0xbd962c95	-0.07332722
16	0x3d8c4270	0.068486094
17	0xbdbad147	-0.09121948
18	0x3e1cafc8	0.1530143
19	0x3cb4f3ef	0.022088973
20	0xbe089d9b	-0.13341372
21	0x3d9514d0	0.0727936
22	0xbda84c65	-0.08217696
23	0xbc676736	-0.0141237285
24	0xbe0607d0	-0.13088918
25	0xbd5ee42e	-0.054416828
26	0xbdd1f921	-0.10252596
27	0x3b69a464	0.0035650963
28	0x3be11940	0.006869465
29	0x3b9a370e	0.00470627
30	0xbdeff3a0	-0.1171639
31	0x3e1cfa1a	0.15329781
32	0xbd8bcc52	-0.068260804
33	0x3e0456f7	0.129238
34	0xbdcf7ada	-0.10130854
35	0x3c55d6fd	0.0130517455
36	0xbc2b06ca	-0.01043863
37	0x3d5d4cda	0.05402837
38	0x3d98bab8	0.07457489
39	0xbdd402c6	-0.103520915
40	0xbdcb52ce	-0.09927903
41	0xbe0d63f0	-0.13807654
42	0x3ccb43ad	0.024812544
43	0xbdde42b1	-0.10852564
44	0x3dd03ec7	0.10168224
45	0x3d4b7b62	0.049678214
46	0xbdeaef8e	-0.11471473
47	0xbca878b6	-0.020565372
48	0xbd93e2ed	-0.07221017
49	0x3bb4b11e	0.005514278
50	0xbdc5d225	-0.096592225
51	0x3ddaab83	0.106772445
52	0xbdcca670	-0.09992683
53	0xbdc3e29b	-0.09564706
54	0xbd27dad9	-0.040980194
55	0x3d6d2c01	0.057903294
56	0xbd8ece9c	-0.06973001
57	0x3cd4e541	0.025988223
58	0x3d258dc2	0.040418394
59	0xbc8affc9	-0.016967671
60	0x3c8656e9	0.016398864
61	0x3dde9c3d	0.10869644
62	0xbcd005fc	-0.025393479
63	0x3de42a64	0.11140898
64	0x3dd87f54	0.10571161
65	0x3db48529	0.08814461
66	0x3d42b6d4	0.04753764
67	0x3e0fb2e8	0.14033091
68	0x3c0931d4	0.008373696
69	0xbd5d729a	-0.05406437
70	0x3d59ba85	0.053156395
71	0x3da8c784	0.082411796
72	0xbd85ddb8	-0.0653643
73	0xbdc51b9d	-0.096244074
74	0xbdb02bd9	-0.08602113
75	0xbe1109fc	-0.14163965
76	0x3cdff0d4	0.027336515
77	0xbde57835	-0.11204568
78	0x3c4fb970	0.012678489
79	0x3d5e8159	0.054322574
80	0xbdd1686c	-0.10224995
81	0xbcad8186	-0.021179926
82	0xbd03eaea	-0.032206453
83	0xbc32c6c2	-0.010911645
84	0xbd244e10	-0.04011351
85	0x3ccc0bfd	0.02490806
86	0x3d01f15a	0.03172431
87	0xbdb2ca90	-0.08730042
88	0xbdbe670f	-0.092970006
89	0x3bf02f09	0.007329826
90	0xbdca0374	-0.0986394
91	0xbda634d2	-0.081155434
92	0xbd2092d9	-0.039202545
93	0x3bb7bc2c	0.0056071486
94	0xbc867a04	-0.016415603
95	0x3e029387	0.1275159
96	0x3ca8d89f	0.020611105
97	0x3de23253	0.11044755
98	0x3dc38dee	0.09548555
99	0xbdbf0c1a	-0.0932848
100	0x3e0df3ad	0.13862486
101	0xbd9e9cc0	-0.077447414
102	0x3bfaca32	0.007653498
103	0x3da251b2	0.079257384
104	0x3d57e2e2	0.052706607
105	0xbd418a62	-0.047251113
106	0xbb0d56b8	-0.002156658
107	0x3da2d117	0.07950037
108	0xbdd1cb34	-0.10243836
109	0x3da5a56f	0.080881946
110	0x3c43bfd8	0.011947595
111	0xbd24b6f1	-0.04021353
112	0x3daf5fc7	0.0856319
113	0xbd96876e	-0.0735005
114	0xbe17bb2c	-0.14817494
115	0xbdbd758b	-0.09250935
116	0x3d1112c6	0.035418294
117	0x3dac18e3	0.08403184
118	0x3db16a3b	0.0866284
119	0xbc38129d	-0.0112349065
120	0x3bd25b84	0.006419601
121	0xbdd10a25	-0.10207013
122	0x3de46641	0.11152316
123	0x3ddfd1ec	0.10928711
124	0xbcbc78ec	-0.023006879
125	0x3de22091	0.11041368
126	0x3dad0e56	0.0845
127	0x3e00d8e6	0.1258274
128	0x3c9bf0ad	0.019035662
129	0xbd90f9a3	-0.070788644
130	0x3d88d9db	0.06682178
131	0xbe0078eb	-0.12546127
132	0xbdd33079	-0.1031198
133	0x3d847bb2	0.064689055
134	0x3d33760c	0.04381375
135	0xbe00ea57	-0.12589394
136	0x3d4f4efb	0.05061243
137	0xbd1b2115	-0.037873346
138	0x3e1afc48	0.151353
139	0xbcb6f002	-0.022331242
140	0xbd8c67ca	-0.06855734
141	0xbda36a2f	-0.07979237
142	0x3d30a7a5	0.04312863
143	0xbe082e88	-0.13299
144	0xbd554970	-0.05207199
145	0xbc8f59e9	-0.017498927
146	0x3d189aa2	0.037256844
147	0x3d81c8ad	0.06337104
148	0x3ba1dd74	0.0049397293
149	0x3d0d88b6	0.034554206
150	0xbd57b10d	-0.052659083
151	0xbd8cafab	-0.068694435
152	0x3d541438	0.051777095
153	0xbb63c337	-0.0034753808
154	0xbd5a6eee	-0.053328447
155	0xbd41a624	-0.047277585
156	0x3c865d22	0.016401831
157	0x3a688bdb	0.0008870938
158	0xbd46140f	-0.048358973
159	0x3b539dd1	0.003229011
160	0x3e0fce6a	0.14043584
161	0xbd4dc513	-0.050236773
162	0x3d165a68	0.036707312
163	0xbd124778	-0.03571269
164	0x3d1c40b6	0.03814765
165	0x3db25ee9	0.08709509
166	0x3d779e43	0.060453665
167	0x3be4a432	0.0069775814
168	0xbe11af0b	-0.1422693
169	0xbdf06b0e	-0.11739169
170	0xbccf3077	-0.025291665
171	0x3dbd4a7b	0.09242722
172	0x3d455243	0.048174154
173	0x3de482d8	0.11157769
174	0xbdaa0760	-0.08302188
175	0x3e0ef5cf	0.13960956
176	0xbd751258	-0.059831947
177	0x3c9c28ce	0.019062426
178	0x3e06044b	0.13087575
179	0xbd145b8f	-0.03622013
180	0x3d66bbff	0.05633163
181	0xbdd734cf	-0.10508119
182	0x3de99268	0.11404878
183	0x3d58650e	0.05283075
184	0x3d943b15	0.072378315
185	0x3d355a89	0.044275794
186	0x3e052a11	0.13004328
187	0x3d76482d	0.060127426
188	0xbd5ae319	-0.053439233
189	0xbc065bc6	-0.008200591
190	0xbd44c7c3	-0.04804207
191	0xbcda6ab6	-0.026662212
192	0xbc6a2210	-0.014290348
193	0x3de626b8	0.11237854
194	0xbd990870	-0.074723125
195	0xbe09fc28	-0.13475096
196	0xbe051e6e	-0.12999889
197	0xbc9cc4a9	-0.019136744
198	0xbd88d371	-0.06680954
199	0xbe110fa7	-0.14166127
200	0x3c3d16ad	0.011541051
201	0xbe0b8a8b	-0.13627069
202	0x3deba888	0.11506754
203	0xbcca6918	-0.024708316
204	0x3dd0e9f4	0.10200873
205	0x3d3af1fb	0.045640927
206	0x3b8c0894	0.0042734835
207	0x3de3408a	0.11096294
208	0xbb838ba4	-0.004014449
209	0xbb31f428	-0.0027153585
210	0xbe13968d	-0.144129
211	0x3d18af85	0.037276763
212	0xbd09b4d6	-0.033619724
213	0x3db9cbbe	0.09072064
214	0xbe070bca	-0.13188091
215	0xbcf1d20a	-0.0295191
216	0x3d703245	0.05864169
217	0xbcc635eb	-0.024195632
218	0xbe0c6100	-0.13708878
219	0x3e109aec	0.14121598
220	0x3d930f4a	0.071806505
221	0xbdf306d2	-0.11866535
222	0x3dc80a7c	0.09767625
223	0xbe08e812	-0.13369778
224	0x3c1f5e71	0.009727106
225	0x3c34f1d3	0.0110439835
226	0xbddc790e	-0.10765277
227	0x3cb1e08a	0.021713514
228	0x3d6b4046	0.057434343
229	0xbd5fd5bc	-0.054647192
230	0xbc8396ec	-0.016063176
231	0xbdad7ba2	-0.08470847
232	0xbe157561	-0.14595558
233	0x3c1d7ec2	0.009612741
234	0x3d573a84	0.05254604
235	0x3e0e32b9	0.13886537
236	0x3ceb4e81	0.028723957
237	0xbdba24dc	-0.090890616
238	0x3cad0cab	0.021124205
239	0x3dad07bd	0.084487416

model.0.bias f4 [4]
0	0xbde7293e	-0.11287163
1	0xbd9b5aa4	-0.07585648
2	0x3da9becb	0.08288344
3	0xbcca1bfc	-0.024671547

model.2.weight f4 [1, 4]
0	0xbf024248	-0.5088239
1	0xbedd047c	-0.43167484
2	0xbd042c43	-0.032268774
3	0xbe9f775f	-0.3114576
