mgt8803/assignments/AS8/outputs/model_step3_EQUITY.pt (torch, 3880 bytes, 3 tensors)

model.0.weight f4 [16, 24]
000000 35 96 0b 3d bd d5 1c 3e f3 3a a2 3d 3e 83 4a bd
       0.034078795 0.1531591 0.079214 -0.04944157
000010 ca 2b 5f 3c 45 a1 fc bd 2a de 19 3d 87 0d 38 3e
       0.01362128 -0.12335447 0.037565388 0.1797391
000020 c5 f0 8d 3d e7 3d 1c 3e a8 61 29 be 6c 78 83 3d
       0.06930689 0.15257989 -0.16541159 0.06419453
000030 b4 e3 29 3d 1e f5 61 3e 5a e1 32 be 75 18 43 be
       0.04147692 0.22066161 -0.17468777 -0.19052298
000040 77 76 b5 bc ef 29 f7 bc 40 d5 1d be 9d ce 2e 3e
       -0.022151215 -0.030171363 -0.1541338 0.17071004
000050 d9 c0 4a 3e 12 4b 1a 3e 25 36 66 bd 04 aa 0d be
       0.19800128 0.150677 -0.05620398 -0.13834387
000060 c9 71 18 be e8 dc 8f bd 48 25 17 be 8a 36 d5 3d
       -0.14887156 -0.070245564 -0.14760315 0.10410793
000070 0b 98 1e be 91 cd 23 3e f7 5d b2 bd 66 89 f0 bd
       -0.15487687 0.15996386 -0.087093286 -0.11744957
000080 54 61 ab 3d d7 e2 f5 3d a8 84 f8 bd e7 b4 04 3d
       0.08368173 0.12006157 -0.12134677 0.032399084
000090 f0 5e 27 3d 5b 94 1c 3e 7f 21 94 bd 4a af 3c 3e
       0.040862024 0.15290968 -0.072329514 0.18426242
0000a0 4a b7 59 bd a4 0e 23 3e 92 35 45 bd d2 ce 15 3e
       -0.053153314 0.15923554 -0.04814679 0.14629677
0000b0 db 67 8b 3c c5 1a 2e be 24 db 19 bd 05 30 a2 bd
       0.017017296 -0.170024 -0.037562504 -0.07919315
0000c0 47 5a 21 3e 49 c0 1f be 67 ce 68 3d 87 c6 c4 3d
       0.15757094 -0.15600695 0.056837466 0.096081786
0000d0 e6 43 a8 bd 14 3b 82 3d e6 d1 24 3e 29 f4 98 bc
       -0.082160756 0.063589245 0.16095695 -0.018671112
0000e0 84 f0 ef bc 5b ed 2a 3e 41 ee 07 3e a7 02 40 3e
       -0.029289491 0.16692106 0.1327448 0.18751012
0000f0 0c 65 83 bd 8d e1 16 3e a4 f5 61 3e 86 7d 99 3d
       -0.064157575 0.14734478 0.2206636 0.07494645
000100 a2 f4 61 be ba 20 27 bd c4 04 2a be 49 01 e0 3d
       -0.22065976 -0.040802695 -0.1660338 0.10937745
000110 24 fb b6 3d ec 66 84 bd 0f 25 69 3d 23 99 af 3d
       0.0893462 -0.06464943 0.056920107 0.085741304
000120 38 47 a4 bc 51 43 26 be 77 8e 0d 3d 35 ed 5c 3e
       -0.020053491 -0.16236617 0.034559693 0.21574862
000130 25 a4 0e bd b6 13 55 3e 20 f0 f3 bd 92 b8 ea bd
       -0.03482451 0.208083 -0.119110346 -0.11460985
000140 5a 5b c5 3d 89 9b 0c be d9 d2 c8 bb c8 99 0d 3e
       0.096365646 -0.13731207 -0.0061286506 0.13828194
000150 49 35 64 be d5 27 51 be 57 40 20 be 4a 3b 2b be
       -0.22285952 -0.20425351 -0.15649544 -0.16721836
000160 59 39 3c bd 69 75 38 3d 35 d2 0b 3c a6 87 ed bd
       -0.04595313 0.045033846 0.008534004 -0.115981385
000170 fc 73 de bd 16 a0 c8 bc a3 34 56 3e 2b 2a d4 3d
       -0.10861966 -0.024490397 0.20918517 0.103596054
000180 64 dd b7 bd c8 85 0d 3e 6e bc 30 be ba 81 35 be
       -0.08977774 0.13820565 -0.1725938 -0.17725268
000190 07 0b 6d bc 3b 1b 04 3e 7f f5 2b 3d d7 7b f3 bd
       -0.014467961 0.12901013 0.04198217 -0.11888855
0001a0 fd 71 a7 3c b5 92 05 3e ae 4b 2f 3d 24 4a bb 3d
       0.020440096 0.13044246 0.042796783 0.091450006
0001b0 6e 16 2f be ac bf 14 bd bd fd 29 be a7 d0 ee 3d
       -0.170984 -0.036315605 -0.166007 0.11660891
0001c0 50 04 42 3e 67 95 b7 bd c3 1c 0d 3d 98 36 8c 3d
       0.18946958 -0.08964043 0.034451257 0.068463504
0001d0 88 96 05 3e f6 fd 51 3d d8 f1 e3 bd 58 aa 69 bc
       0.13045704 0.051267587 -0.111301124 -0.0142618045
0001e0 eb 8a b8 bd 0c 23 fe bb d7 f8 0b 3e d7 60 54 3e
       -0.090108715 -0.0077556428 0.13669144 0.20740066
0001f0 ad 6a 02 be 43 18 9c bd a0 28 a8 3d c3 e9 77 bd
       -0.12736006 -0.07621815 0.082108736 -0.060525667
000200 66 4b ab bb fe ad 3c be 14 ab 10 bd b1 00 8b bd
       -0.005227494 -0.18425748 -0.035319403 -0.06787241
000210 0f 07 32 3e 69 e1 b3 bd 7b 41 4f be 7c 0c 0e be
       0.17385505 -0.08783228 -0.20239823 -0.1387195
000220 f2 f6 7d bb 2f e0 34 3e 47 1a 31 3e 92 4c d8 ba
       -0.0038751927 0.17663644 0.1729518 -0.0016502312
000230 1f a3 fd bd 6e be cc 3d 2a d1 2c bd 76 8c 5a be
       -0.123846285 0.09997259 -0.042191662 -0.21342644
000240 e0 d2 f6 3d c1 97 c0 3d e3 69 b7 bd a4 07 18 3d
       0.1205194 0.09403945 -0.08955743 0.03711666
000250 26 25 fb bc 25 57 1c 3e 30 92 99 bd 54 00 c2 3d
       -0.030657362 0.15267618 -0.07498586 0.09472719
000260 83 05 32 3e d9 34 28 bd cc f3 da bd 25 3d 62 bd
       0.17384915 -0.041066024 -0.10691032 -0.055234093
000270 16 a1 77 3d 02 3d 4d 3c a5 88 26 3e c5 e0 a4 bd
       0.060456358 0.012526752 0.16263063 -0.08050684
000280 0b 2f 0c ba 7c d4 5d be b7 bb dc 3c 6e 67 10 be
       -0.0005347586 -0.21663088 0.026944978 -0.14101955
000290 b6 cb 2b 3e d0 50 0e be f0 05 27 3e f0 e6 cc 3c
       0.16776928 -0.13898015 0.16310859 0.025012463
0002a0 4d fe 1e bd 27 7e 99 bd 7a 72 16 be 17 40 33 be
       -0.03881674 -0.07494765 -0.14692107 -0.17504917
0002b0 74 61 0b be 67 e3 49 be 5c 58 0b be 21 17 2e 3d
       -0.13611394 -0.19715653 -0.13607925 0.042502526
0002c0 6f 1b 3c 3e 15 47 52 3e 47 70 14 3d 5d fe eb 3d
       0.1836984 0.20534928 0.03623989 0.11523125
0002d0 ff a4 fd 3d 6c 31 98 3c 2e 66 f5 3d 71 f2 d1 bd
       0.12384986 0.018578254 0.1198238 -0.1025132
0002e0 30 4f c2 ba e0 09 3a 3e db b1 37 be b1 22 3d 3e
       -0.0014824625 0.1816783 -0.1793894 0.18470265
0002f0 46 5e 3f 3c 5f 6a f7 bd be 51 03 be 03 da ec 3c
       0.011680191 -0.120808356 -0.12824151 0.02891255
000300 19 19 ee 3d d3 f9 9f bd 08 4d 0a 3c 68 68 2f be
       0.11625881 -0.07811322 0.008441217 -0.17129672
000310 44 79 8d bd b7 f2 85 bd 28 22 b3 bd ca 7a 55 bb
       -0.06907895 -0.06540435 -0.08746749 -0.0032574409
000320 3b df 62 3d 3b 5d 4b be 3c 88 57 3c 8c 7e de 3d
       0.05538867 -0.19859783 0.013155039 0.10863981
000330 e2 9c 27 be a7 52 35 bd 0d 10 b8 3d 4c 12 36 be
       -0.1636844 -0.044268277 0.089874364 -0.17780417
000340 c7 d2 72 bb 58 56 4b 3e 4b 0f 8d 3d c1 fb 19 3e
       -0.0037051903 0.19857156 0.068876825 0.15037443
000350 b5 d6 05 3e 44 7a f4 bc d2 db 15 be e9 87 c1 bd
       0.13070185 -0.029843457 -0.14634636 -0.09449751
000360 ad 2b fa 3b 6d 2a 58 3d e5 1c 56 bd dd f1 61 3e
       0.007634601 0.052774835 -0.05227365 0.2206492
000370 71 5c 11 3d f9 08 51 bd fb de 5a 3e 47 b8 b2 bd
       0.03548855 -0.051033948 0.21374123 -0.08726554
000380 31 1a f3 3d 0a 03 15 bc 3f d5 f8 bc 07 b9 d5 3d
       0.1187023 -0.009094963 -0.030375121 0.10435682
000390 0f f1 05 3d 7c 58 1c 3e 4e cb 0a 3c 5a 65 88 3d
       0.032700595 0.15268129 0.008471323 0.06659956
0003a0 8d f9 bb 3c 9d c1 b3 bd dd 4f 9f bc 0d 09 6f bc
       0.022946144 -0.08777163 -0.019447261 -0.01458956
0003b0 69 6d 20 3e 4c 86 ea 3d 48 8d 10 3e 51 24 c7 3d
       0.15666737 0.11451396 0.14116395 0.09723724
0003c0 c1 78 96 3c 62 b9 f3 bd a9 6e 07 be a3 f5 40 3e
       0.018368127 -0.11900593 -0.13225807 0.18843703
0003d0 cd dc 54 3e 76 01 2a bd 4f 62 42 3e ff 0c 1f 3e
       0.20787354 -0.0415053 0.18982814 0.15532301
0003e0 c0 39 d0 3c 29 f8 14 3d b8 5c f3 3d 91 e8 8f 3d
       0.025418162 0.036369476 0.11882919 0.070267804
0003f0 0b 6f 01 3e 17 76 8e 3c c7 c6 14 be 18 b0 01 be
       0.12640016 0.017390294 -0.14528953 -0.1266483

model.0.bias f4 [16]
000000 52 b5 9f 3c 15 af d5 bd 3d 2f 89 bd ff b9 11 bd
       0.01949564 -0.10433785 -0.06698463 -0.03557777
000010 c0 af c1 3d 8d 3b a0 bc 78 18 8f bd 94 81 af bd
       0.0945735 -0.019559646 -0.06987089 -0.08569637
000020 8b aa 49 3d 9f 05 06 3e ee ab ae bd 32 e0 4e be
       0.049234908 0.13088082 -0.08528887 -0.20202711
000030 71 a4 36 be 68 bc 0b be 24 a4 b1 3c 32 df be bd
       -0.17836167 -0.1364609 0.021684714 -0.09319915

model.2.weight f4 [1, 16]
000000 e1 50 81 3e e5 40 6a be bb e1 47 3d 75 d0 0a be
       0.25257018 -0.22876318 0.048799258 -0.13556083
000010 bd 13 17 be e4 02 85 be 83 e5 27 3e 85 70 52 3e
       -0.14753623 -0.25978768 0.16396146 0.20550735
000020 c5 70 7f bd 36 9e 31 be 65 15 2a be df cf 9a bd
       -0.062363405 -0.17345509 -0.16609724 -0.075591795
000030 90 cc 52 3d f2 dc b4 3d a6 af b2 bd 6f d8 47 3e
       0.051464617 0.088312045 -0.087249085 0.19516157
