mgt8803/assignments/AS8/outputs/model_step3_EQUITY.pt (torch, 3880 bytes, 3 tensors)

model.0.weight f4 [16, 24]
0	0x3de6fc57	0.11278599
1	0x3dc386be	0.095471844
2	0xbe05f259	-0.1308073
3	0x3cdae3e0	0.026719987
4	0xbd9655b3	-0.073405646
5	0x3ccf3c95	0.025297442
6	0x3cbfecda	0.02342837
7	0xbd7490a4	-0.059708253
8	0xbe6c1250	-0.2305386
9	0xbe80b186	-0.2513544
10	0x3bc2994b	0.005938684
11	0x3e1f37e3	0.15548663
12	0xbde1bc8f	-0.11022293
13	0x3d01a911	0.031655375
14	0xbce0bfc7	-0.027435197
15	0x3e3c755a	0.18404141
16	0x3e2e5d02	0.17027667
17	0xbdaa6964	-0.08320883
18	0x3dddd5e1	0.1083181
19	0xbe1822aa	-0.14856973
20	0xbe65cc9f	-0.22441338
21	0xbe1166cd	-0.14199372
22	0x3e5f6b36	0.21818241
23	0x3c141ab3	0.009039569
24	0xbd60c20b	-0.054872554
25	0xbd3407be	-0.043952696
26	0xbce46bfb	-0.02788352
27	0x3d8d2513	0.06891837
28	0xbde6d7e5	-0.11271647
29	0xbd3301cc	-0.043702886
30	0x3e29c279	0.16578092
31	0xbd9d3d0f	-0.07677662
32	0xbe2c4d1a	-0.16826287
33	0xbe29d3e5	-0.16584738
34	0xbde7102d	-0.11282382
35	0xbe6bcaf7	-0.23026644
36	0xbe002dfe	-0.12517545
37	0x3e4ef88d	0.20212002
38	0xbe03bdca	-0.12865368
39	0x3e2dcef4	0.16973478
40	0x3e7e00e6	0.2480503
41	0xbd743d91	-0.059629027
42	0x3d2306ac	0.039801285
43	0x3e506d67	0.20354234
44	0xbd963200	-0.073337555
45	0xbd01143c	-0.031513438
46	0x3e334d5f	0.17509983
47	0x3c3558f6	0.011068573
48	0x3e969c36	0.29416054
49	0xbd94dcac	-0.07268652
50	0xbe6aaa4b	-0.22916524
51	0x3db9491e	0.09047149
52	0xbe03c41a	-0.12867776
53	0xbe765ae8	-0.24058115
54	0xbdd4a727	-0.10383444
55	0xbd472795	-0.048621733
56	0xbda911f9	-0.08255381
57	0x3cf681e2	0.03009123
58	0xbdaa6f2a	-0.08321984
59	0xbd385109	-0.044999156
60	0xbda2b2e5	-0.07944278
61	0xbe3b6534	-0.18300325
62	0xbd6a8f16	-0.057265364
63	0xbdd25ab0	-0.102712035
64	0x3dc64e8b	0.0968295
65	0x3d7f5393	0.062335562
66	0xbd8d7b38	-0.06908268
67	0x3c4a1047	0.012332982
68	0xbe95a47a	-0.29227048
69	0x3ca7e3f3	0.020494437
70	0xbe2a87c5	-0.16653354
71	0xbcd5fe65	-0.026122281
72	0xbb26e2c8	-0.0025464762
73	0x3e6d0635	0.23146899
74	0x3e9ba2de	0.30397695
75	0x3d0eba3e	0.034845583
76	0x3e59dc65	0.2127548
77	0x3b6f953e	0.003655746
78	0xbe5bb336	-0.21455082
79	0x3da8548c	0.08219251
80	0x3d4474e2	0.04796303
81	0xbe84fb36	-0.2597291
82	0xbdb76d24	-0.08956364
83	0xbdbf8249	-0.09351022
84	0xbad9ada4	-0.0016607535
85	0xbe22389f	-0.15841912
86	0xbcaa8458	-0.02081506
87	0xbdaf3993	-0.08555903
88	0x3e4b2fd3	0.19842462
89	0xba97b79c	-0.0011575106
90	0xbe445814	-0.19174224
91	0x3d4a362a	0.04936806
92	0x3d907f2d	0.07055507
93	0x3dfdb87f	0.123887055
94	0x3e04f671	0.12984635
95	0xbcc289b4	-0.023747303
96	0x3e21c89e	0.15799186
97	0x3db39eb5	0.08770505
98	0x3e0b966e	0.13631603
99	0xbde3d9d0	-0.11125529
100	0xbc9e2058	-0.019302532
101	0xbdf5b786	-0.11997895
102	0x3c9e26b4	0.019305564
103	0x3c25efc4	0.010127965
104	0xbe9575a0	-0.29191303
105	0x3e24dce4	0.16099888
106	0x3e0e28cf	0.13882755
107	0x3eb614b2	0.35562664
108	0xbc45f85e	-0.012083141
109	0xbe6b156e	-0.22957394
110	0x3d8f17de	0.06986974
111	0xbe81461b	-0.252488
112	0x3e69a7ac	0.22817868
113	0x3c3ff23d	0.011715469
114	0x3dfd60fa	0.123720124
115	0x3e27e48e	0.1639578
116	0xbe271bff	-0.16319273
117	0xbe037567	-0.12837754
118	0xbda07a0f	-0.07835781
119	0xbd164037	-0.036682334
120	0xbcd2ec5f	-0.025747476
121	0x3d87c0bd	0.06628559
122	0xbe8f1905	-0.27948776
123	0x3d39c240	0.045351267
124	0xbdc85317	-0.09781473
125	0xbd9b8d5d	-0.07595322
126	0xbe040749	-0.12893404
127	0x3ce91f64	0.028457351
128	0xbe80049f	-0.25003526
129	0xbccfe263	-0.025376504
130	0xbdee42a9	-0.11633808
131	0xbda3fabb	-0.080068074
132	0xbde755a9	-0.11295635
133	0xbe4f9a30	-0.20273662
134	0xbcc3ddb0	-0.02390942
135	0xbe5a3fe6	-0.21313438
136	0x3e237b38	0.15964973
137	0x3c818241	0.01580918
138	0xbe142d84	-0.14470488
139	0xbd7f711a	-0.06236372
140	0xbdcef9a3	-0.10106208
141	0xbe0a2719	-0.13491477
142	0x3c9b267b	0.018939247
143	0x3e1521b4	0.14563638
144	0x3d677f66	0.05651798
145	0xbca4812f	-0.02008113
146	0x3e42a96e	0.19009945
147	0x3e83e663	0.2576171
148	0x3e0ede7b	0.13952057
149	0x3e838f2d	0.25695172
150	0xbced8b5d	-0.028997118
151	0xbc6b091c	-0.014345434
152	0xbd3269f5	-0.04355808
153	0x3e0978f3	0.13425045
154	0x3e9e26c0	0.3088894
155	0x3d28beaa	0.041197456
156	0x3e649067	0.2232071
157	0xbd233e17	-0.039854135
158	0xbc6ea852	-0.014566498
159	0xbe26c845	-0.16287334
160	0x3e3b8a2d	0.18314429
161	0x3e4ef2d7	0.20209824
162	0x3d595b84	0.05306579
163	0x3e84bcb9	0.25925234
164	0xbe1e369d	-0.15450521
165	0x3c379172	0.01120411
166	0x3d7ba00a	0.061431922
167	0x3de23db9	0.11046929
168	0x3d67f1b3	0.056626987
169	0x3c8a65f9	0.016894327
170	0x3b13f762	0.0022577872
171	0x3db35496	0.08756368
172	0x3e3b6438	0.18299949
173	0xbe3ede59	-0.18639506
174	0x3d68ef1a	0.05686865
175	0x3d016f2e	0.03160017
176	0xbd0f0b5c	-0.034922943
177	0xbe98b4da	-0.2982548
178	0x3eafaab1	0.34309915
179	0x3e0e90ba	0.13922396
180	0x3b939818	0.004504215
181	0x3d6bd591	0.05757672
182	0xbd9df4c1	-0.07712699
183	0x3da24dbd	0.07924984
184	0x3e6e376e	0.23263332
185	0x3e0e3017	0.13885532
186	0xbe38914f	-0.18024181
187	0xbe2571e4	-0.16156727
188	0x3de1e55c	0.11030075
189	0x3e80eddb	0.2518147
190	0x3e1e6bce	0.15470812
191	0x3bb7f11e	0.00561346
192	0xbe0e3c09	-0.13890089
193	0x3e24341f	0.16035508
194	0x3e14e094	0.14538795
195	0xbcf86f02	-0.03032637
196	0x3d31611d	0.043305505
197	0xbd730da4	-0.05933918
198	0xbdd6d961	-0.104906805
199	0xbd7e6075	-0.062103707
200	0xbe02cc5c	-0.1277327
201	0xbe06f610	-0.13179803
202	0xbe4aa12d	-0.19788046
203	0xbdf5cb96	-0.120017216
204	0x3e351faf	0.17687868
205	0xbd9e4048	-0.077271044
206	0x3d9ca6b1	0.07648981
207	0x3e8e8674	0.27836955
208	0x3d940f93	0.07229533
209	0xbda00690	-0.07813752
210	0x3e8aca6d	0.27107564
211	0xbe0ea3d6	-0.13929686
212	0xbd41a740	-0.047278643
213	0xbded936e	-0.116003856
214	0x3d8132f6	0.06308548
215	0xbbad51cd	-0.0052892924
216	0xbdc5edec	-0.096645206
217	0xbe6d9681	-0.23201944
218	0xbde23800	-0.110458374
219	0x3d874723	0.06605365
220	0xbe9920dd	-0.29907885
221	0xbe069090	-0.13141084
222	0xbe70df74	-0.2352274
223	0xbd225572	-0.03963227
224	0x3e3e09fc	0.18558496
225	0xbd54567e	-0.051840298
226	0x3de54a1a	0.111957744
227	0x3e231178	0.15924633
228	0xbbc03306	-0.0058654575
229	0x3e670a80	0.22562599
230	0xbb90fb0c	-0.0044244584
231	0xbdacb657	-0.08433216
232	0x3b99a46e	0.004688791
233	0xbea53ed9	-0.3227451
234	0x3e1856e4	0.14876896
235	0x3dfeb0f8	0.12436098
236	0x3bfacb74	0.007653648
237	0x3e5c02d0	0.21485448
238	0xbe4ffd80	-0.20311546
239	0x3e62f7b4	0.22164804
240	0xbdb1144a	-0.08646448
241	0x3e076ad1	0.13224341
242	0x3dc42b3e	0.0957856
243	0x3d8caa34	0.06868401
244	0x3d54ca16	0.051950537
245	0x3de26f04	0.11056331
246	0x3df72a87	0.12068658
247	0xbd7eb264	-0.062181845
248	0xbe2b37f0	-0.16720557
249	0xbcaa5bbf	-0.020795701
250	0xbe1671e0	-0.14691877
251	0x3e6c0b97	0.23051296
252	0xbd439400	-0.047748566
253	0xbe483258	-0.19550455
254	0xbdf35ee7	-0.118833356
255	0xbbbceb40	-0.0057653487

model.0.bias f4 [16]
0	0x3c2123cc	0.009835195
1	0xbda54c65	-0.08071212
2	0xbe5dc325	-0.21656473
3	0xbd082c78	-0.033245534
4	0x3df62c26	0.120201394
5	0xbc7f25d4	-0.015572984
6	0xbe558f77	-0.20855509
7	0xbe3838ad	-0.1799037
8	0xbe8dbb30	-0.27681875
9	0x3d89664c	0.06708965
10	0xbd20d419	-0.039264772
11	0xbe169d28	-0.14708388
12	0xbe8fe6c1	-0.2810574
13	0x3e00ee23	0.12590842
14	0xbe1bacd7	-0.15202652
15	0x3c471ff2	0.012153612

model.2.weight f4 [1, 16]
0	0x3dafa4fa	0.08576389
1	0x3e2c3cff	0.16820143
2	0x3dcec3fc	0.10095975
3	0x3e0ba301	0.136364
4	0x3e4585ec	0.19289368
5	0x3cbf07c9	0.023319142
6	0xbda7e6d3	-0.08198323
7	0xbdab11c9	-0.083530016
8	0x3d96a028	0.07354766
9	0xbe1d7378	-0.15376079
10	0xba8b2bb2	-0.0010617881
11	0x3db62604	0.0889397
12	0xbcae61e9	-0.021286922
13	0x3e8dfafd	0.2773055
14	0x3e398cc4	0.18120104
15	0xbe2e2e3d	-0.17009826
