mgt8803/assignments/AS8/outputs/model_step3_FIAT_GOLD.pt (torch, 4672 bytes, 3 tensors)

model.0.weight f4 [16, 36]
0.021232555 -0.014711148 0.13070066 -0.03400061 0.011868677 -0.06258476 0.09829133 -0.08428633
-0.10883731 -0.0025333571 0.031371545 -0.109501146 -0.0818379 -0.08633648 -0.112397455 0.033406295
-0.013393978 -0.16434292 -0.007926439 -0.07829301 0.16810228 -0.14026685 -0.13326515 -0.14060417
0.18612057 0.13625395 -0.13328734 0.075938664 -0.081913374 0.093463995 0.0018586046 0.14275403
0.15611903 0.120752394 -0.115991466 -0.083019555 0.07093644 -0.011283758 -0.07990481 -0.05402607
-0.072304964 0.012272839 0.10377883 -0.0266231 -0.025196897 -0.09847985 0.009674388 -0.14244863
0.008603823 0.13685285 0.02648574 0.09446088 -0.030013612 -0.08880255 -0.09301582 -0.01017741
0.052243263 -0.09063599 -0.09542035 0.07085528 0.12508667 0.105148435 0.094558835 -0.13396604
0.18058215 -0.0134092355 -0.03944448 -0.026254343 0.012510411 -0.09957913 0.12075303 0.0051426627
0.0007715884 -0.13830908 0.13781196 -0.05867842 0.05420343 0.13680534 0.075927146 -0.015196873
0.036213033 -0.05006785 -0.13163608 0.014816824 -0.057857007 -0.027028222 0.14795247 0.12594624
0.057807636 -0.09340481 0.032923188 -0.10674174 0.163467 -0.17026545 -0.08381077 0.14048591
0.07598572 0.10501987 -0.036405675 0.13094172 0.035608307 0.08868257 -0.061934497 -0.0038654613
0.059185274 -0.18438238 0.08449654 -0.10483454 -0.060305204 -0.14537017 -0.112272106 0.036612246
-0.017976843 0.14769873 0.17436837 0.1401512 0.012609968 -0.117124826 0.10590007 -0.11324469
-0.04811138 0.04881409 0.032945823 0.013524741 -0.16169327 0.10770703 -0.16035941 -0.062360648
-0.016000783 0.06233316 0.099224746 0.033288557 0.08444362 0.14091046 0.12388888 -0.030742094
0.06141175 -0.025985906 -0.036995318 0.017296458 -0.082215294 0.010114334 -0.14827901 -0.020763995
-0.03886216 0.187709 0.15498632 0.10236033 0.062518835 0.007761461 -0.010306704 -0.033554602
-0.11914974 -0.08833488 -0.065676585 -0.011378874 0.11954687 -0.06353251 -0.05086565 0.1430688
0.10813213 0.118194565 0.0019895467 -0.16170207 0.0035755811 0.09430726 0.119534664 0.011902464
0.13213307 -0.09957291 -0.13379493 0.1555718 -0.14891897 0.07458043 -0.18607076 0.16709773
-0.080204196 0.13096598 0.049249094 -0.116427906 -0.08464509 -0.07148546 0.018315958 -0.0072534163
0.1853399 -0.14556958 0.003837136 -0.024148025 -0.12460145 -0.16192374 -0.01392054 0.097493626
0.011345448 -0.0447688 0.106313705 -0.0010471132 0.02698745 -0.018862052 -0.064679295 0.0007727786
-0.09110828 0.031682894 -0.03535633 0.052529283 -0.062355008 -0.060924813 -0.12123331 -0.1390194
0.06363848 0.07040403 -0.08454325 -0.17146052 0.12186799 0.10938163 0.020516863 0.07716513
0.019526862 -0.16132769 0.014671125 0.13368298 0.030020185 -0.1392048 0.024543904 -0.13124782
-0.041332807 -0.028436722 0.0020188126 -0.070360795 -0.10058279 -0.09724383 0.064011544 0.060988184
0.08593145 -0.0832392 0.049846124 0.017514642 0.017682206 0.11861396 -0.10229548 -0.058331966
-0.03298891 -0.10337819 0.05586019 -0.07432312 -0.1296059 -0.034172516 0.07602943 -0.08297489
0.014968331 0.106502965 -0.15047137 0.09628531 -0.14981586 0.08418045 0.0053499304 -0.017367236
00000000: e5ef ad3c 0707 71bc 65d6 053e 3944 0bbd
00000010: d774 423c 702c 80bd f74c c93d 509e acbd
00000020: 18e6 debd ae06 26bb 737f 003d 2342 e0bd
00000030: a19a a7bd 2ed1 b0bd a330 e6bd 0ad5 083d
00000040: 6a72 5bbc 8349 28be e5dd 01bc 1658 a0bd
00000050: 0123 2c3e 1da2 0fbe a976 08be 8afa 0fbe
00000060: 6496 3e3e 2886 0b3e 7a7c 08be bb85 9b3d
00000070: 33c2 a7bd 0d6a bf3d 6c9c f33a 1d2e 123e
00000080: abdd 1f3e 084d f73d ef8c edbd 2806 aabd
00000090: 2047 913d 83df 38bc 22a5 a3bd 714a 5dbd
000000a0: a014 94bd 0514 493c ff89 d43d b018 dabc
000000b0: b969 cebc ceaf c9bd 5381 1e3c 0ede 11be
000000c0: 0df7 0c3c 2723 0c3e 9ff8 d83c b574 c13d
000000d0: 1bdf f5bc 1dde b5bd 147f bebd 27bf 26bc
000000e0: 08fd 553d 5d9f b9bd bf6b c3bd 931c 913d
000000f0: b816 003e 1058 d73d 10a8 c13d 652e 09be
00000100: 87ea 383e 69b2 5bbc 8990 21bd 5913 d7bc
00000110: 78f8 4c3c 25f0 cbbd 5d4d f73d c883 a83b
00000120: 6c44 4a3a e5a0 0dbe 941e 0d3e c858 70bd
00000130: 6a04 5e3d b316 0c3e b17f 9b3d 4efc 78bc
00000140: 1e54 143d f213 4dbd 9ccb 06be 44c2 723c
00000150: 78fb 6cbd 4a6a ddbc da80 173e 0df8 003e
00000160: b3c7 6c3d 054b bfbd 77da 063d 6a9b dabd
00000170: e563 273e 115a 2ebe fba4 abbd 8adb 0f3e
00000180: 679e 9b3d a814 d73d 1e1e 15bd 9615 063e
00000190: 04da 113d 359f b53d 07af 7dbd ae53 7dbb
000001a0: 426c 723d bcce 3cbe 860c ad3d 7eb3 d6bd
000001b0: 9702 77bd ebdb 14be ebee e5bd b9f6 153d
000001c0: 2c44 93bc 563e 173e 9f8d 323e cc83 0f3e
000001d0: 0a9a 4e3c 24df efbd 23e2 d83d d5ec e7bd
000001e0: 7010 45bd 49f1 473d 33f2 063d e096 5d3c
000001f0: ec92 25be 8195 dc3d 4235 24be e16d 7fbd
00000200: 1314 83bc 0e51 7f3d 5836 cb3d 9559 083d
00000210: c7f0 ac3d d54a 103e 74b9 fd3d d8d6 fbbc
00000220: e38a 7b3d 65e0 d4bc 6788 17bd 4db1 8d3c
00000230: 7e60 a8bd 97b6 253c 74d6 17be 4119 aabc
00000240: ee2d 1fbd ca36 403e bcb4 1e3e 4ba2 d13d
00000250: e009 803d db53 fe3b 73dd 28bc 8d70 09bd
00000260: c704 f4bd ebe8 b4bd 7281 86bd 756e 3abc
00000270: fdd4 f43d 551d 82bd 8058 50bd a180 123e
00000280: 6174 dd3d fe0f f23d 0e63 023b 3a95 25be
00000290: 4c54 6a3b 2a24 c13d 97ce f43d 8d02 433c
000002a0: e44d 073e e2ec cbbd 8a01 09be 374e 1f3e
000002b0: 377e 18be a0bd 983d 5589 3ebe ab1b 2b3e
000002c0: 1942 a4bd f21b 063e 6bb9 493d c171 eebd
000002d0: 685a adbd f866 92bd 590b 963c 11ae edbb
000002e0: bec9 3d3e 3110 15be 7678 7b3b 14d2 c5bc
000002f0: 0c2f ffbd 56cf 25be fa12 64bc bdaa c73d
00000300: 42e2 393c 7d5f 37bd 00bb d93d 4a3f 89ba
00000310: c914 dd3c 9784 9abc 9476 84bd 4b94 4a3a
00000320: fa96 babd ecc5 013d cdd1 10bd f228 573d
00000330: f767 7fbd 4c8c 79bd 2b49 f8bd 1a5b 0ebe
00000340: e454 823d fd2f 903d 0325 adbd 5993 2fbe
00000350: ed95 f93d 7a03 e03d fb12 a83c c008 9e3d
00000360: ccf6 9f3c 1633 25be 295f 703c 31e4 083e
00000370: e4ec f53c b48b 0ebe 4c10 c93c d465 06be
00000380: 974c 29bd 21f4 e8bc 0e4e 043b 5219 90bd
00000390: 5afe cdbd c627 c7bd 7c18 833d bfce 793d
000003a0: d4fc af3d 5079 aabd 732b 4c3d de7a 8f3c
000003b0: 46da 903c e0eb f23d 4b80 d1bd 80ed 6ebd
000003c0: 611f 07bd f2b7 d3bd a8cd 643d b836 98bd
000003d0: 69b7 04be 7bf8 0bbd 51b5 9b3d bdee a9bd
000003e0: bb3d 753c 3a1e da3d 2b15 1abe 3c31 c53d
000003f0: 5469 19be cd66 ac3d 784e af3b bc45 8ebc

model.0.bias f4 [16]
-0.03204061 -0.16048095 -0.013288525 -0.18806452 -0.051736966 0.016126445 0.10778257 0.04748297
-0.10438905 -0.05409403 0.0059089214 -0.09048766 -0.03073565 -0.06980724 0.034486093 -0.0025761076
00000000: 043d 03bd 1e55 24be 1db8 59bc fc93 40be
00000010: 24ea 53bd 9b1b 843c 1cbd dc3d 817d 423d
00000020: edc9 d5bd b491 5dbd a09f c13b 9851 b9bd
00000030: 54c9 fbbc 19f7 8ebd 4a41 0d3d ead3 28bb

model.2.weight f4 [1, 16]
-0.075128816 0.19402088 -0.14589708 0.12948287 -0.07923475 0.14106658 0.18258798 -0.18329625
0.12313657 0.114309646 -0.09715937 0.18234864 -0.025762307 0.25004026 0.23491777 0.14159471
00000000: 23dd 99bd 69ad 463e 0b66 15be 2897 043e
00000010: d445 a2bd c273 103e 58f8 3a3e 03b2 3bbe
00000020: 072f fc3d 2d1b ea3d 7efb c6bd 9ab9 3a3e
00000030: 790b d3bc 4705 803e 498e 703e 34fe 103e
